models/best_3d_sin_5_5.ckpt (torch, 67362 bytes, 48 tensors)

time_embed.0.weight f4 [32, 1]
0	0x3f252742	0.6451303
1	0x3ed585ec	0.41703737
2	0xbf552f5e	-0.832754
3	0x3f281118	0.65651083
4	0x3e923d02	0.2856217
5	0x3f23c5ce	0.639737
6	0x3f06f1d6	0.5271276
7	0xbf48112e	-0.78151214
8	0xbf529f16	-0.82273996
9	0xbf1ff3a2	-0.6248113
10	0x3bdabe00	0.006675482
11	0xbc0d680b	-0.008630763
12	0xbf1712b0	-0.5901289
13	0x3d6271c6	0.055284284
14	0x3f3f4828	0.74719477
15	0xbf4da878	-0.8033519
16	0x3e65eacb	0.22452848
17	0x3ef7a721	0.48369697
18	0xbf28bfac	-0.6591747
19	0xbf501b6a	-0.8129183
20	0x3c18c5c6	0.009324497
21	0x3e9a6e2b	0.30162176
22	0xbed013f0	-0.4064021
23	0xbc8ecaba	-0.017430652
24	0x3f39c854	0.725713
25	0xbecd8bb8	-0.4014566
26	0x3cf02235	0.029313186
27	0xbf486d4e	-0.78291786
28	0xbf457c40	-0.77142715
29	0xbeade55c	-0.3396405
30	0xbccba2ac	-0.024857841
31	0x3d8e3986	0.069445655

time_embed.0.bias f4 [32]
0	0x3edf73e5	0.43643108
1	0x3f25dd22	0.64790547
2	0x3f2bb0e8	0.6706681
3	0xbe1880ad	-0.14892836
4	0x3ee38e4b	0.44444498
5	0x3ea3c81a	0.31988603
6	0xbf236b78	-0.6383586
7	0x3e1ef888	0.15524495
8	0x3f1f0ad0	0.62125874
9	0xbe75b438	-0.23994529
10	0xbf3d46e0	-0.7393627
11	0x3f912b17	1.1341275
12	0x3eb16578	0.34647727
13	0xbf92ef58	-1.1479292
14	0xbd93eedb	-0.072232924
15	0xbea5fd04	-0.32419598
16	0xbe651a13	-0.22373228
17	0xbfb13561	-1.3844415
18	0x3fa39a61	1.2781488
19	0x3e2a7ed8	0.1664995
20	0xbf5aab66	-0.85417783
21	0xbf889ac1	-1.0672227
22	0xbecca200	-0.39967346
23	0x3f5c92b7	0.8616137
24	0x3ec4bbca	0.38424522
25	0xbef3ae98	-0.47594142
26	0xc0008243	-2.0079505
27	0x3e6c4498	0.23073041
28	0x3ef97cd0	0.48728037
29	0xbf1051b0	-0.56374645
30	0x3f5bcb1f	0.85856813
31	0xbfb8d1a7	-1.4438981

time_embed.2.weight f4 [16, 32]
0	0x3dae8c36	0.08522837
1	0xbdd1af78	-0.10238546
2	0x3e0b2f2c	0.13592213
3	0x3d9e536a	0.07730754
4	0x3dcf72cd	0.101293184
5	0xbe1649a4	-0.14676529
6	0x3d37232b	0.044711273
7	0xbde4d733	-0.111738585
8	0xbd003e81	-0.03130961
9	0xbd05c956	-0.032662712
10	0xbd729aef	-0.059229787
11	0xbcd814a7	-0.026377035
12	0x3d814981	0.06312848
13	0x3c1709bf	0.009218632
14	0xbdf39844	-0.11894277
15	0xbd7ea41b	-0.062168222
16	0x3ca1fbf8	0.019773468
17	0x3e1a2028	0.15051329
18	0x3c706b1a	0.0146739725
19	0xbd82a3e3	-0.06378915
20	0x3e1dceae	0.15410873
21	0x3d30c5ba	0.043157317
22	0x3de76261	0.11298061
23	0xbe0e36b5	-0.13888057
24	0xbdeb5eae	-0.11492668
25	0x3dff0fbb	0.12454172
26	0x3d6d870d	0.057990123
27	0x3e2482bb	0.16065495
28	0x3e15a003	0.14611821
29	0xbe2db0bb	-0.16961949
30	0xbd9a6956	-0.075396225
31	0xbe2a432d	-0.16627188
32	0x388cd870	6.716035e-05
33	0x3db42290	0.08795655
34	0x3e255128	0.1614424
35	0xbe549541	-0.20760061
36	0xbe61f23c	-0.22065061
37	0xbd402964	-0.046914473
38	0xbd800fee	-0.06253038
39	0x3d9ff989	0.07811267
40	0x3e264e7b	0.16240875
41	0x3ca5f3f2	0.020257924
42	0xbe22c65c	-0.1589598
43	0xbd7820a9	-0.060578022
44	0xbe11dfa0	-0.14245462
45	0x3e500810	0.20315576
46	0x3de046b8	0.109509885
47	0xbe0ed7d1	-0.13949515
48	0xbdcb3faf	-0.09924256
49	0x3dc914e2	0.09818436
50	0x3e292477	0.16517816
51	0x3e0c5dff	0.13707732
52	0xbe27ba0e	-0.16379568
53	0x3dcea73d	0.10090492
54	0xbcfba9b1	-0.030720564
55	0xbe641e0f	-0.22277091
56	0x3d8615bc	0.06547114
57	0x3dd21fef	0.10259997
58	0x3cb8c9b6	0.02255712
59	0xbdd0396e	-0.10167204
60	0xbde013a6	-0.10941248
61	0xbe1509da	-0.1455454
62	0xbe0a11c9	-0.13483347
63	0x3e49dbf1	0.19712807
64	0x3ddfa8d5	0.10920874
65	0x3ce4abf5	0.027914027
66	0xbe08292d	-0.13296957
67	0xbdd7dfb5	-0.105407156
68	0xbe0fff32	-0.14062193
69	0xbe1c5036	-0.15264973
70	0x3dfb68ea	0.1227587
71	0x3dcc0975	0.09962741
72	0x3dcbe628	0.09956008
73	0xbd14fbd6	-0.036372982
74	0xbdc0df6c	-0.09417614
75	0xbe10990d	-0.14120884
76	0x3d42cd26	0.047558926
77	0xbd82d538	-0.063883245
78	0xbd56b675	-0.0524201
79	0x3be90902	0.0071116695
80	0xbe12663f	-0.14296816
81	0xbcb6944a	-0.022287507
82	0x3da49358	0.08035916
83	0xbe198097	-0.1499046
84	0x3e04caba	0.12967959
85	0x3d9ce980	0.07661724
86	0xbd1bce86	-0.038038753
87	0xbddebcdc	-0.10875866
88	0x3d9636dd	0.07334683
89	0x3df9c2bd	0.121953465
90	0x3c4e4223	0.01258901
91	0xbbfee61c	-0.007778896
92	0x3df3e1a6	0.119082734
93	0x3c36c706	0.011155849
94	0x3db135d7	0.08652847
95	0x3e0409b3	0.12894325
96	0x3cd8aa6c	0.026448451
97	0x3d949c75	0.07256404
98	0xbd998167	-0.07495385
99	0x3cd81074	0.026375033
100	0x3e274c2b	0.1633765
101	0x3de54396	0.111945316
102	0xbe2b3361	-0.16718818
103	0x3d96251f	0.07331299
104	0x3d1f3263	0.038866412
105	0xbdd0329d	-0.10165904
106	0xbca7dff6	-0.020492535
107	0x3eb06546	0.34452266
108	0x3c666c59	0.014063918
109	0xbf3523b3	-0.707576
110	0xbd959ad5	-0.073049225
111	0x3d676c36	0.056499682
112	0x3d587e91	0.052855078
113	0xbb2762a8	-0.0025540981
114	0x3f3df63e	0.7420386
115	0x398eb3f7	0.00027218435
116	0xbd41bd14	-0.04729946
117	0xbe24f300	-0.16108322
118	0x3dcf2f35	0.10116426
119	0x3e5688a4	0.20950562
120	0xbd02ca79	-0.031931374
121	0xbe111b2e	-0.14170524
122	0xbd48c51f	-0.049016114
123	0x3d63d8c6	0.055626653
124	0xbd1c2f71	-0.03813118
125	0xbddac9b5	-0.10683004
126	0x3e9bcfe5	0.30432048
127	0xbf2368a9	-0.63831574
128	0xbcb5c9a9	-0.022190886
129	0xbe11ea81	-0.14249612
130	0x3d6d43d5	0.057926018
131	0xbe4efbe8	-0.20213282
132	0xbd12c5bb	-0.0358331
133	0xbda16043	-0.078796886
134	0xbe05fb41	-0.13084127
135	0xbdaf9231	-0.08572806
136	0x3cdfd2b8	0.027322158
137	0xbe256990	-0.1615355
138	0x3d4cfd99	0.050046537
139	0x3df8c9ae	0.12147842
140	0xbca9727b	-0.020684471
141	0xbceddfae	-0.029037323
142	0x3d3f1f54	0.046660736
143	0x3daf91ea	0.08572753
144	0xbe113871	-0.14181687
145	0x3ca8535a	0.020547558
146	0x3de9b970	0.114123225
147	0xbe0cbc52	-0.13743713
148	0x3deb3c84	0.11486152
149	0x3df9d6fd	0.12199209
150	0x3e31c44b	0.17360036
151	0x3e004d80	0.12529564
152	0xbd026e4b	-0.031843465
153	0x3de06a04	0.10957721
154	0xbda78b7f	-0.08180904
155	0xbe2bc000	-0.16772461
156	0xbe33ecfd	-0.17570873
157	0xbd7a982c	-0.06118028
158	0xbd09ba8f	-0.03362518
159	0xbdcef64b	-0.101055704
160	0x3d5d0dc0	0.05396819
161	0xbe4fefb6	-0.20306286
162	0x3e170a11	0.14749934
163	0xbce04464	-0.027376361
164	0xbe0709a0	-0.13187265
165	0x3d8bc340	0.0682435
166	0x3d2505c8	0.040288717
167	0xbde6df96	-0.112731144
168	0x3df6d1bf	0.12051725
169	0xbccf57a2	-0.025310341
170	0xbe1f03a9	-0.1552874
171	0xbe571ec3	-0.21007828
172	0xbda8634e	-0.08222066
173	0xbd1ebc24	-0.038753644
174	0x3d4ec8d0	0.05048448
175	0xbe2b0075	-0.16699393
176	0x3def3b3d	0.11681221
177	0x3de33c16	0.11095445
178	0x3d19c007	0.037536647
179	0x3e0db44a	0.13838306
180	0x3e0547fd	0.13015743
181	0xbe424f95	-0.1897567
182	0x3e2e17c6	0.17001256
183	0xbd647baf	-0.055782016
184	0xbe191b62	-0.14951852
185	0xbd3a4622	-0.04547704
186	0x3d459212	0.048235007
187	0x3e0bed17	0.13664661
188	0xbdc4a5af	-0.09601914
189	0xbd388a0c	-0.045053527
190	0xbed0c7e8	-0.40777516
191	0x3e3636a0	0.17794275
192	0xbcaf5531	-0.021402927
193	0xbe0a22c9	-0.13489832
194	0xbd9801bb	-0.07422205
195	0x3e08535b	0.13313048
196	0xbd828efe	-0.0637493
197	0xbdf1ef8d	-0.11813269
198	0xbe27d3d0	-0.16389394
199	0x3e328cb9	0.17436494
200	0xbddc4005	-0.10754398
201	0xbd2656b3	-0.040610027
202	0xbe072b68	-0.13200152
203	0xbece1089	-0.4024699
204	0xbe314b52	-0.17313889
205	0x3e8efd81	0.27927783
206	0x3d00fd41	0.03149152
207	0x3cfeb771	0.031093331
208	0xbbb35566	-0.005472827
209	0x3dbbdaf0	0.091726184
210	0x3d006a68	0.031351477
211	0x3d676a1d	0.056497682
212	0x3d457990	0.048211634
213	0x3dc463e6	0.095893666
214	0x3d529276	0.051409207
215	0xbedceb3b	-0.43148217
216	0xbd3c5921	-0.045983437
217	0xbe19454f	-0.14967845
218	0x3dd990e4	0.10623339
219	0xbd9e6a00	-0.07735062
220	0xbd7344ba	-0.059391715
221	0xbdcbf3d0	-0.09958613
222	0xbf041f52	-0.5161029
223	0x3ea7e32c	0.32790506
224	0x3ddbde04	0.107357055
225	0x3c3e1f26	0.011604106
226	0xbd258ebe	-0.040419333
227	0xbe08eef7	-0.13372408
228	0x3d957e1a	0.072994426
229	0x3df4898c	0.119402975
230	0x3d95ba8c	0.073109716
231	0x3db3ec05	0.087852515
232	0x3c7b653c	0.01534396
233	0xbe1a2972	-0.15054873
234	0xbbbd3c3d	-0.005775003
235	0xbdad4649	-0.084606715
236	0xbd51b058	-0.051193565
237	0xbb02ed6d	-0.0019977943
238	0xbd05c8ca	-0.03266219
239	0x39d61eeb	0.00040840296
240	0xbd7251af	-0.05915993
241	0x3cce354d	0.0251719
242	0x3e31722d	0.17328711
243	0x3dd18308	0.1023007
244	0x3b81fe91	0.0039671143
245	0xbdac25c0	-0.08405638
246	0x3e21d861	0.15805198
247	0xbc18cfdb	-0.0093269
248	0xbe64cf5d	-0.22344728
249	0xbe2b51f6	-0.16730484
250	0xbd00239d	-0.031283963
251	0xbe1488a8	-0.14505255
252	0x3c75f3b4	0.015011717
253	0xbc9ee561	-0.019396486
254	0xbd202e3d	-0.039106596
255	0xbdef88a8	-0.11695987

time_embed.2.bias f4 [16]
0	0x3cd47121	0.02593285
1	0x3de82765	0.11335639
2	0x3b1c35b7	0.0023835727
3	0x3f2ffd24	0.68745637
4	0xbe3f2ed3	-0.18670206
5	0xbeea742e	-0.45791763
6	0xbf0483bf	-0.5176353
7	0xbcb7dee3	-0.022445148
8	0xbd659f9c	-0.05606042
9	0xbe32b4cc	-0.17451781
10	0xbf6c6778	-0.9234538
11	0x3dfa4c61	0.12221599
12	0xbeae0a4f	-0.3399224
13	0xbea94c7a	-0.3306616
14	0x3d9799b8	0.074023664
15	0x3e055a84	0.1302281

time_embed.4.weight f4 [8, 16]
0	0xbe0aa206	-0.1353837
1	0x3d8a8d04	0.06765178
2	0x3d0c7e20	0.03429997
3	0xbe3d0785	-0.184599
4	0xbe0089e4	-0.12552601
5	0x3d618703	0.055060398
6	0x3e430e4b	0.19048421
7	0x3e247ad1	0.16062476
8	0xbe0dfb3d	-0.13865371
9	0x3e078d1e	0.13237426
10	0xbe02913a	-0.12750712
11	0xbc0d20ee	-0.008613808
12	0xbe712ff1	-0.23553444
13	0xbc530ffc	-0.012882229
14	0x3bec77bf	0.0072164233
15	0x3e117a68	0.1420685
16	0xbdc334f0	-0.095315814
17	0x3e53a3a2	0.2066789
18	0xbe665044	-0.22491556
19	0x3e0e832b	0.13917224
20	0x3d9cdab0	0.07658899
21	0xbd78cf72	-0.06074471
22	0x3dc33185	0.095309295
23	0xbe10fe8a	-0.14159599
24	0xbd852d9a	-0.065028384
25	0xbd8c91a4	-0.06863716
26	0xbd51a371	-0.05118126
27	0x3da632af	0.08115136
28	0xbe51a4c1	-0.20473005
29	0x3dad0ac2	0.084493175
30	0x3dc86b1e	0.09786056
31	0x3e461e67	0.19347535
32	0xbd4f2448	-0.05057171
33	0xbe0f6e4d	-0.1400692
34	0xbe0da0ca	-0.13830867
35	0xbddbac63	-0.107262395
36	0xbdeec8cc	-0.11659393
37	0x3dddaa84	0.10823539
38	0x3d8144fc	0.06311986
39	0xbd818d7d	-0.06325815
40	0xbc204868	-0.009782888
41	0x3e022eb9	0.12713136
42	0x3d587d89	0.052854095
43	0xbd5426cd	-0.051794816
44	0x3de38e86	0.111111686
45	0x3dc6865d	0.096935965
46	0x3d4840a5	0.048889775
47	0xbdf23ca1	-0.1182797
48	0x3db482e4	0.08814028
49	0x3d521e80	0.05129862
50	0x3e025d64	0.12730938
51	0x3e132609	0.14369978
52	0x3d36082b	0.044441383
53	0xbe4dc44c	-0.20094413
54	0xbde5f2ee	-0.11227976
55	0xbe1bb8be	-0.15207192
56	0xbdcb2b00	-0.09920311
57	0x3dfb75ea	0.1227835
58	0xbba36afe	-0.0049871197
59	0x3e381c7b	0.17979614
60	0xbe8d99d2	-0.27656418
61	0xbe308aba	-0.1724042
62	0x3e258817	0.16165195
63	0xbe61a8ce	-0.2203705
64	0xbd938d60	-0.072046995
65	0xbe960f6c	-0.2930864
66	0xbe31da48	-0.17368424
67	0x3d82c5ce	0.063853845
68	0x3a684638	0.0008860561
69	0xbe53ccfb	-0.20683663
70	0x3e5d6e18	0.21624029
71	0x3e354243	0.17701058
72	0x3cc7e7ea	0.024402577
73	0xbd345337	-0.044024672
74	0x3e57de06	0.21080789
75	0x3d48910c	0.048966452
76	0xbde103df	-0.109870665
77	0xbf036c84	-0.51337457
78	0xbc97cf86	-0.018531572
79	0xbdb6f1af	-0.08932816
80	0x3d3e9840	0.046531916
81	0x3dd70be6	0.10500316
82	0xbe12141a	-0.1426548
83	0x3cbd5320	0.023110926
84	0xbdd3354f	-0.10312902
85	0xbc5b2eba	-0.01337784
86	0x3aafcd4f	0.0013412627
87	0xbde8521d	-0.11343787
88	0x3ad44e05	0.0016197568
89	0xbc7ef389	-0.015560993
90	0xbe0ab7f1	-0.1354673
91	0x3df3b775	0.11900226
92	0xbde262f3	-0.11054029
93	0xbcceffa4	-0.025268383
94	0x3e263e43	0.16234688
95	0xbcc1343d	-0.02358448
96	0x3e4bc21a	0.19898263
97	0x3e0bcb3c	0.13651747
98	0xbe590114	-0.21191818
99	0xbb15b4bf	-0.0022843329
100	0x3e573cda	0.21019307
101	0xbd6926f4	-0.056921914
102	0xbda60f29	-0.0810836
103	0xbe0b247e	-0.1358814
104	0x3d88381c	0.06651327
105	0xbdd2335b	-0.102637015
106	0xbc70a8f6	-0.014688721
107	0x3e1f40f1	0.15552117
108	0xbac849f0	-0.0015280824
109	0x3dedffa2	0.11621024
110	0xbd161634	-0.03664227
111	0xbda18fd2	-0.0788876
112	0x3e6d0bc0	0.23149014
113	0xbe10d979	-0.14145459
114	0xbd1fae30	-0.038984478
115	0xbd9b487f	-0.07582187
116	0x3e25f9a6	0.16208515
117	0xbe0913ca	-0.13386455
118	0xbe1f7150	-0.15570569
119	0xbe365dd2	-0.17809227
120	0xbe0c58e7	-0.13705789
121	0x3e3012b2	0.17194632
122	0xbdb902a0	-0.09033704
123	0xbdcb5728	-0.09928733
124	0xbcf166c0	-0.02946794
125	0xbce67c2c	-0.028135382
126	0xbc827e3f	-0.01592934
127	0xbd433d7f	-0.04766607

time_embed.4.bias f4 [8]
0	0xbdb691a6	-0.08914499
1	0xbe9c0d63	-0.30478963
2	0xbf3b4262	-0.7314817
3	0x3e8e661a	0.27812272
4	0x3e5c15d2	0.21492699
5	0x3eeea2f1	0.4660869
6	0xbf2e0e5b	-0.67990655
7	0x3de30626	0.11085157

time_embed.6.weight f4 [3, 8]
0	0xbcac03ce	-0.020997908
1	0x3e1f448d	0.15553494
2	0x3e61ebf2	0.22062662
3	0xbd7863e7	-0.06064215
4	0xbe562eb7	-0.20916258
5	0x3afe84f9	0.0019418291
6	0x3e1aa672	0.15102556
7	0x3e97e5d4	0.29667532
8	0xbc30a0d1	-0.010780529
9	0xbdcd9dca	-0.100398615
10	0xbe42dfcd	-0.19030686
11	0x3e208132	0.15674284
12	0x3ec3ba27	0.3822796
13	0x3df1b5a9	0.11802227
14	0xbe30acd2	-0.17253426
15	0xbe5dbdb4	-0.21654397
16	0x3ced2fa1	0.028953375
17	0xbdaea4b8	-0.08527511
18	0xbd197911	-0.037468974
19	0xbd8a8acd	-0.067647554
20	0x3d92d14a	0.07168825
21	0xbe120f89	-0.14263739
22	0x3dda05ca	0.106456354
23	0xbe11705e	-0.14203021

time_embed.6.bias f4 [3]
0	0xbed4a178	-0.4152944
1	0x3de1592b	0.110033356
2	0xbf01fb26	-0.5077385

model.0.weight f4 [64, 6]
0	0x3b20323a	0.0024444
1	0xbe37573a	-0.17904368
2	0x3b3d400a	0.0028877282
3	0xbe535260	-0.20636892
4	0xbe7ce542	-0.2469683
5	0x3e3868a6	0.1800867
6	0xbea759c8	-0.32685685
7	0x3e8d6928	0.2761929
8	0x3efc29e6	0.49250716
9	0xbddb26fa	-0.107007936
10	0xbec25081	-0.37952045
11	0x3ebffa50	0.3749566
12	0x3f665f84	0.89989495
13	0xbf2d3909	-0.67665154
14	0xbe033064	-0.12811428
15	0xbf30c3d0	-0.69048786
16	0xbd838095	-0.064210095
17	0xbdb22520	-0.08698487
18	0x3e8d051b	0.27542958
19	0x3ddd5119	0.10806484
20	0xbed134ef	-0.40860698
21	0x3e60fe3f	0.21971987
22	0x3e5c44b5	0.21510585
23	0xbbef1cee	-0.00729715
24	0x3f16c08c	0.58887553
25	0x3f3a85a7	0.7286019
26	0x3eb55f1d	0.35424128
27	0x3e8c2173	0.2736927
28	0xbd998561	-0.07496143
29	0xbe936180	-0.28785324
30	0xbecfe6cf	-0.4060578
31	0xbeb0853f	-0.3447666
32	0xbda4fcf0	-0.080560565
33	0x3e7c2028	0.24621642
34	0x3c288ee5	0.010287975
35	0x3df90459	0.121590324
36	0x3f5a325b	0.85233086
37	0x3c9affec	0.018920861
38	0xbdbe43a1	-0.09290243
39	0xbe88db12	-0.26729637
40	0xbd787180	-0.060655117
41	0x3eb97113	0.3621908
42	0x3f2a139b	0.66436166
43	0xbf360fd6	-0.71117914
44	0xbc08e6dc	-0.008355822
45	0x3db6cdb6	0.08925955
46	0x3da4cd7d	0.08047006
47	0xbe79061f	-0.24318741
48	0xbe82c10b	-0.25537905
49	0xbd8fd14d	-0.07022343
50	0x3f0af340	0.5427742
51	0x3d80cd00	0.06289101
52	0x3e7bfcdd	0.24608178
53	0x3df1a2cb	0.117986284
54	0x3d848065	0.06469802
55	0xbdc2409b	-0.09484979
56	0x3f64d7e8	0.89391947
57	0xbef6539d	-0.48110667
58	0xbdcb4c87	-0.09926706
59	0xbdb9e82e	-0.09077488
60	0xbe6bb35e	-0.23017642
61	0x3d0e0e36	0.03468152
62	0x3e4b7273	0.19867878
63	0x3ebe3956	0.3715312
64	0xbedebf33	-0.43505248
65	0x3eb3a761	0.35088637
66	0xbf0f3cf2	-0.5595237
67	0x3caff271	0.02147791
68	0x3e81ccbd	0.25351515
69	0xbd8b8558	-0.06812543
70	0x3e3ba979	0.18326367
71	0xbd98cb06	-0.07460599
72	0xbed7de77	-0.42161915
73	0x3f5d7c72	0.86518013
74	0xbe4289de	-0.18997905
75	0x3c97e6dc	0.0185427
76	0x3e56d899	0.20981063
77	0x3e1e2453	0.15443544
78	0xba9c99d5	-0.0011947701
79	0x3cb23bd6	0.021757048
80	0x3f37954d	0.7171219
81	0xbf33eaa5	-0.70279914
82	0x3d7d0a00	0.061777115
83	0xbe34d109	-0.17657866
84	0xbf61765a	-0.88071215
85	0xbb19bbdd	-0.0023457923
86	0xbd02fb6a	-0.03197805
87	0x3df5904a	0.119904116
88	0x3e655044	0.223939
89	0x3d17ef5f	0.037093516
90	0x3f161b12	0.58635056
91	0xbf14151a	-0.578447
92	0x3db21b68	0.086966336
93	0xbe94cb62	-0.2906142
94	0x3f089da3	0.53365535
95	0x3f14cf13	0.5812847
96	0xbe96678f	-0.29375884
97	0xbf19e25e	-0.60111034
98	0xbed0db71	-0.4079242
99	0xbe4ec0f2	-0.2019079
100	0x3c5d8269	0.013519862
101	0x3d22d7fa	0.039756753
102	0x3dcde1d2	0.100528374
103	0xbd85f342	-0.06540538
104	0x3e390c3a	0.1807107
105	0x3efd56ea	0.49480373
106	0x3e2d6c25	0.16935785
107	0xbde4735a	-0.11154814
108	0x3e2e1755	0.17001088
109	0xbf2effd6	-0.68359125
110	0xbf04afc7	-0.51830715
111	0xbe2728b8	-0.16324127
112	0x3efc85ad	0.49320737
113	0x3ec39466	0.38199157
114	0x3ec822c1	0.39089015
115	0x3ec6e612	0.38847405
116	0xbf07a262	-0.5298215
117	0xbeb35df5	-0.3503262
118	0x3e7e9de5	0.2486492
119	0xbcc3bddc	-0.023894243
120	0x3edb0812	0.42779595
121	0x3edbb76c	0.42913377
122	0xbecd4db3	-0.40098342
123	0x3dfb1a70	0.12260902
124	0xbd1df420	-0.038562894
125	0x3ef04acc	0.46932065
126	0x3e9c025c	0.3047055
127	0xbed29617	-0.41130134
128	0xbc4ec3fe	-0.01261997
129	0x3e577325	0.21040018
130	0xbe7c9d34	-0.24669343
131	0x3d9cde81	0.07659627
132	0xbece2a2c	-0.4026655
133	0x3f04c8fc	0.5186918
134	0xbce618ba	-0.028087962
135	0x3e854f31	0.2603698
136	0x3cb5ab78	0.02217649
137	0xbda72c18	-0.08162707
138	0xbf48833c	-0.7832525
139	0xbf41409b	-0.75489205
140	0xbeabd386	-0.33559817
141	0xbdfc7d26	-0.12328558
142	0xbe8a4652	-0.27006775
143	0x3e42b188	0.19013035
144	0x3ebe959a	0.37223512
145	0x3f4a1c3d	0.7894934
146	0x3f2acf4b	0.66722554
147	0xbdb36357	-0.08759182
148	0x3dee78d7	0.11644142
149	0xbe2f1d0a	-0.17100921
150	0xbf15631c	-0.58354354
151	0x3ec17ea4	0.37791932
152	0xbe152299	-0.14563979
153	0x3d68b3bc	0.056812033
154	0xbe73439c	-0.2375626
155	0x3e6a4af3	0.22880153
156	0xbe91a31f	-0.28444764
157	0xbf5b609a	-0.8569428
158	0x3e8d908b	0.2764934
159	0xbe061ac8	-0.13096154
160	0x3f1c8eb8	0.6115527
161	0x3ea35ac8	0.31905198
162	0xbf02a712	-0.5103618
163	0x3f409e54	0.7524159
164	0xbe110985	-0.14163788
165	0xbedfbd96	-0.4369933
166	0x3e08c7db	0.13357489
167	0x3df515a0	0.11967015
168	0xbe57c521	-0.21071292
169	0xbe110fc0	-0.14166164
170	0xbc8abbbe	-0.016935226
171	0xbf4399a1	-0.76406294
172	0x3f7cd881	0.9876786
173	0x3ef40109	0.4765704
174	0xbea53e41	-0.32274058
175	0xbed1e27e	-0.40993112
176	0x3f226b8d	0.6344536
177	0x3e8019d5	0.25019708
178	0x3debc88e	0.11512862
179	0x3dd9969c	0.106244296
180	0xbebe15be	-0.37125963
181	0x3f33250c	0.69978404
182	0xbf11df9b	-0.5698182
183	0x3e057922	0.1303449
184	0x3e2d6760	0.16933966
185	0xbee99fe4	-0.456298
186	0xbe15ee6b	-0.1464173
187	0x3d80d794	0.06291118
188	0xbd3e5882	-0.046471126
189	0x3dc2a5c0	0.095042706
190	0x3eaec31a	0.34133226
191	0x3d75868a	0.05994276
192	0x3ddabfd0	0.106811166
193	0x3dd87841	0.105698116
194	0x3f4b1a8b	0.79337376
195	0xbed74c6b	-0.4205049
196	0x3e810050	0.2519555
197	0x3d850ba7	0.06496363
198	0xbb15dbe6	-0.0022866665
199	0xbe9193f6	-0.28433198
200	0x3ec5e74b	0.38653025
201	0xbef76ced	-0.4832529
202	0x3da81ffb	0.08209225
203	0xbd57c7cc	-0.052680776
204	0xbe8188b2	-0.25299603
205	0x3e376b33	0.17911987
206	0x3ce709d4	0.028202929
207	0xbef4a0a6	-0.47778815
208	0xbe27856d	-0.16359492
209	0x3e1d2888	0.15347493
210	0xbece0030	-0.40234518
211	0xbf557437	-0.83380455
212	0xbe9b5a08	-0.30342126
213	0x3b90f137	0.0044232863
214	0xbe26d9f8	-0.16294086
215	0x3e1fee08	0.15618145
216	0xbdd69147	-0.10476928
217	0xbe6e6a82	-0.23282817
218	0x3da6dd56	0.08147685
219	0x3e835a7d	0.25654975
220	0xbedf6ffa	-0.4364012
221	0x3e503724	0.20333534
222	0xbeca56e2	-0.3951941
223	0x3ecf3077	0.40466663
224	0x3f285e63	0.6576902
225	0xbdde7b31	-0.10863341
226	0x3eccaea0	0.39976978
227	0xbc1b4f9f	-0.009479432
228	0xbd3d8a73	-0.046274614
229	0x3cc69a55	0.024243513
230	0xbf0b77c0	-0.544796
231	0x3e690bfc	0.22758478
232	0x3e42c17b	0.1901912
233	0x3d4aaa8c	0.049479052
234	0x3f2376c3	0.6385309
235	0xbe091d26	-0.13390025
236	0xbf37f379	-0.71855885
237	0xbe51c076	-0.20483574
238	0xbe179595	-0.14803155
239	0x3da2ff26	0.07958822
240	0xbf00b3c9	-0.5027433
241	0xbf00763a	-0.501804
242	0xbd8f9e1e	-0.0701258
243	0xbd5e332e	-0.054248028
244	0x3e39de22	0.18151143
245	0x3d048dd3	0.032361817
246	0x3f0a6496	0.5405973
247	0xbf2ccb98	-0.6749816
248	0x3e94558d	0.2897152
249	0xbe744091	-0.23852755
250	0xbdca37e2	-0.0987394
251	0xbe31b331	-0.17353512
252	0x3e48683d	0.19571014
253	0x3f09400c	0.5361335
254	0x3ed84672	0.42241246
255	0x3e89e94b	0.269358

model.0.bias f4 [64]
0	0x3e86e229	0.26344422
1	0xbecc250a	-0.3987201
2	0xbeb91e03	-0.3615571
3	0x3eb0b98e	0.34516567
4	0x3e4f0289	0.20215811
5	0x3ed8c043	0.42334184
6	0xbf217d42	-0.63081753
7	0x3df50bd1	0.119651444
8	0x3e935a2b	0.2877973
9	0xbe17abb2	-0.1481159
10	0xbe41fb0b	-0.18943422
11	0x3ef8773d	0.48528472
12	0xbefa26f0	-0.48857832
13	0xbe986786	-0.29766482
14	0xbe76719d	-0.24066778
15	0xbeb16fb2	-0.3465553
16	0x3e2bf0de	0.16791102
17	0x3e859859	0.26092795
18	0xbcded60b	-0.027201673
19	0x3e3b4276	0.18287072
20	0xbf17da67	-0.5931763
21	0x3e26c81a	0.1628727
22	0x3d529f8b	0.051421683
23	0xbeb9ec87	-0.3631327
24	0xbeccfdd0	-0.40037394
25	0xbe3d4a83	-0.18485455
26	0xbed4721b	-0.41493306
27	0x3f151885	0.5824054
28	0x3e9b9a40	0.3039112
29	0xbf01628c	-0.50540996
30	0x3d19126a	0.037371077
31	0x3e75fdac	0.2402255
32	0x3e8ae916	0.27130955
33	0x3e57b956	0.21066794
34	0x3eef70fa	0.46765882
35	0xbf2a0bca	-0.6642424
36	0xbea08f88	-0.31359506
37	0x3de9ada0	0.114100695
38	0x3eb06d61	0.3445845
39	0xbe93abb6	-0.28841943
40	0xbee77569	-0.45206764
41	0xbed6e98d	-0.4197506
42	0xbf2ab7c9	-0.66686684
43	0x3f0352d7	0.5129828
44	0xbec898c1	-0.39179042
45	0xbf259e22	-0.64694417
46	0xbf0f0b3e	-0.5587653
47	0xbe5e645e	-0.21717975
48	0xbd7e27c3	-0.06204964
49	0xbe444832	-0.19168165
50	0xbe8d2592	-0.27567726
51	0xbec90c7f	-0.39267346
52	0xbdfac6fe	-0.12244986
53	0x3eb7f70e	0.35930675
54	0x3f2bdc65	0.6713317
55	0xbf2c76ba	-0.6736866
56	0x3d876b0e	0.06612216
57	0xbe91213a	-0.28345662
58	0x3f0aaa97	0.5416655
59	0x3ee54c9e	0.44785017
60	0xbf0425c4	-0.51620126
61	0xbf341da0	-0.70357704
62	0xbe540ff5	-0.20709212
63	0xbf13ad29	-0.57686096

model.2.weight f4 [32, 64]
0	0x3d8fd497	0.0702297
1	0x3def646e	0.11689077
2	0x3ebd2736	0.36943978
3	0xbde85e49	-0.113461085
4	0x3e4446a3	0.19167571
5	0x3bb0aabc	0.005391447
6	0x3de8bb28	0.11363822
7	0xbd1cc19b	-0.038270574
8	0x3aad2f95	0.0013213033
9	0x3e93f29a	0.28896028
10	0x3e290e2d	0.16509314
11	0x3d993e85	0.07482628
12	0x3e89d633	0.26921234
13	0x3d1953e2	0.037433513
14	0xbf0708e3	-0.52747935
15	0xbf3ff565	-0.7498382
16	0xbe4751cc	-0.19464797
17	0x3e17fa37	0.14841543
18	0x3d110767	0.03540745
19	0x3bb5321c	0.005529655
20	0xbe8dfb70	-0.27730894
21	0x3db1999e	0.08671878
22	0x3ec03b98	0.37545466
23	0x3dbbef69	0.09176523
24	0xbe591dd8	-0.2120279
25	0x3e169484	0.14705092
26	0x3e7b3a2f	0.24533914
27	0xbedaa18f	-0.42701384
28	0x3c2ee85e	0.010675518
29	0x3e9d71bb	0.30750832
30	0xbd17e2fc	-0.037081704
31	0x3d0a5bbb	0.033778887
32	0xbd838ddb	-0.06423541
33	0xbdcff284	-0.10153678
34	0x3e092f92	0.13397053
35	0x3e264763	0.1623817
36	0x3e1127e7	0.14175378
37	0xbdbacbb8	-0.091208875
38	0xbe17904e	-0.14801142
39	0xbe50e0f5	-0.20398314
40	0x3e68b6a1	0.22725917
41	0xbf740754	-0.9532368
42	0x3d8afbb0	0.06786287
43	0x3e11252c	0.14174336
44	0xbbc4de07	-0.006007913
45	0xbdb4ace4	-0.08822039
46	0x3e51c1f4	0.20484143
47	0x3e000622	0.1250234
48	0x3dc67b08	0.09691435
49	0xbb7dea6b	-0.003874446
50	0xbe8d43c9	-0.27590778
51	0xbe0096fc	-0.12557596
52	0x3e35f73e	0.17770097
53	0x3e0de133	0.13855438
54	0xbd5cbb87	-0.053889778
55	0xbeb6bc82	-0.35690695
56	0x3de364be	0.111031994
57	0xbeac3f9c	-0.3364228
58	0xbde9cc99	-0.11415977
59	0x3e6d6566	0.23183212
60	0xbeaccc7c	-0.3374976
61	0xbedb6ca3	-0.4285632
62	0x3f00f59d	0.50374776
63	0x3df8b0e8	0.12143117
64	0xbcd7b1c6	-0.026329886
65	0x3e3d2392	0.184706
66	0xbd7355a0	-0.05940783
67	0x3e948143	0.2900487
68	0x3e96f5c6	0.29484385
69	0xbd661f83	-0.056182396
70	0x3c01c8ef	0.007921441
71	0xbd711c71	-0.058865014
72	0xbd4964e5	-0.049168486
73	0xbe0efb44	-0.13963038
74	0xbe1bc5dc	-0.15212196
75	0x3c024963	0.007952067
76	0x3df5e420	0.12006402
77	0x3c560c08	0.013064392
78	0xbfa5e625	-1.296086
79	0x3c4e8686	0.012605315
80	0xbd7a2eed	-0.06107991
81	0xbbbb4bb1	-0.00571581
82	0x3e39005d	0.18066545
83	0x3e0b286d	0.1358964
84	0xbeda5ae2	-0.42647463
85	0xbd6e0241	-0.05810762
86	0x3dedc1b1	0.11609209
87	0x3da1453e	0.07874535
88	0xbd8e98b0	-0.069627166
89	0x3e1f2788	0.15542424
90	0xbf0d59bb	-0.5521504
91	0xbcce4144	-0.025177605
92	0x3dd628f3	0.10457029
93	0xbec5a169	-0.3859971
94	0xbecea6ae	-0.40361542
95	0x3e50d75a	0.2039465
96	0xbd95aafd	-0.07308004
97	0xbe05b741	-0.13058187
98	0x3e6b4473	0.2297533
99	0xbdb63fa7	-0.088988595
100	0xbde782c6	-0.1130424
101	0x3e34591f	0.17612122
102	0xbd99b0c1	-0.07504416
103	0xbd4c1837	-0.04982778
104	0x3ed72114	0.42017424
105	0x3cb54f56	0.022132557
106	0x3ccb1916	0.024792235
107	0x3dfffda1	0.12499548
108	0xbda30416	-0.07959764
109	0x3d9f210b	0.07769974
110	0x3e888997	0.26667473
111	0x3ee33344	0.4437505
112	0x3e137d08	0.14403164
113	0xbe370316	-0.17872271
114	0xbeaf8871	-0.34283784
115	0xbf50951e	-0.81477535
116	0xbe75e491	-0.24012972
117	0xbd97ebda	-0.07418032
118	0x3e7ad19c	0.24494022
119	0xbe0b2274	-0.13587362
120	0x3d5f6ac6	0.054545186
121	0xbe91dde7	-0.2848961
122	0x3e8c3056	0.27380627
123	0x3e57c258	0.2107023
124	0xbed1eff5	-0.41003385
125	0xbeb6b48d	-0.35684624
126	0xbe0f7a91	-0.14011599
127	0xbc9f3eb9	-0.019439088
128	0x3ce8a215	0.0283976
129	0x3dc2d137	0.09512561
130	0x3d0006a3	0.03125633
131	0xbdc81bae	-0.097709045
132	0x3dd70a7b	0.10500046
133	0xbe9309c0	-0.28718376
134	0x3ea3b001	0.31970218
135	0x3e0bbbed	0.13645907
136	0x3e8e099d	0.2774171
137	0x3dc88704	0.09791377
138	0xbdcec2dd	-0.10095761
139	0x3ed6c048	0.41943574
140	0xbf80be94	-1.005816
141	0xbe24b555	-0.16084798
142	0x3d012cc2	0.031536825
143	0x3d45179e	0.048118226
144	0xbd07aedf	-0.033125754
145	0xbc79d82f	-0.015249296
146	0xbe876d87	-0.2645075
147	0x3ecd52ef	0.40102336
148	0x3d5c2d3d	0.05375408
149	0x3d31c30c	0.0433989
150	0xbc7f79eb	-0.015593032
151	0x3e559fc6	0.2086173
152	0xbe454ff0	-0.19268775
153	0xbd5e1e42	-0.054228075
154	0xbe6dcabe	-0.23221871
155	0x3eecbbe5	0.46237102
156	0x3e0f07e8	0.1396786
157	0xbf1966cb	-0.59922475
158	0xbe3cb083	-0.18426709
159	0x3de7995b	0.11308547
160	0x3e82b580	0.255291
161	0x3cfd8326	0.030946326
162	0x3e3eae44	0.18621165
163	0xbe3f81af	-0.18701814
164	0xbd9c8585	-0.07642654
165	0xbd19bd91	-0.0375343
166	0xbd4950bd	-0.049149264
167	0x3c2cdb37	0.010550312
168	0x3e343fc6	0.17602453
169	0x3e6cd7e0	0.23129225
170	0xbde9e2ae	-0.11420189
171	0xbce3312b	-0.027733406
172	0x3def73d0	0.11692011
173	0xbd430805	-0.04761507
174	0x3dfb0a18	0.122577846
175	0xbee29631	-0.44255212
176	0x3e79fe55	0.24413426
177	0xbdf6ba14	-0.1204721
178	0xbdd09fb3	-0.1018671
179	0xbe965289	-0.29359844
180	0x3e26be4e	0.16283533
181	0x3d500e31	0.050794784
182	0x3e26d338	0.16291511
183	0xbf09f4c8	-0.5388913
184	0x3db81979	0.089892335
185	0xbe8ec9f6	-0.2788846
186	0x3e71e767	0.23623429
187	0x3c560510	0.01306273
188	0xbe09c159	-0.13452663
189	0xbf8bf897	-1.0935239
190	0xbe4afdad	-0.19823332
191	0xbe572931	-0.21011807
192	0xbe0d1e47	-0.13781081
193	0x3d5ea993	0.054360937
194	0xbcc6f5cb	-0.024287125
195	0xbc245143	-0.01002914
196	0xbcf31531	-0.02967319
197	0xbdf212d5	-0.11819998
198	0x3ca253bd	0.01981532
199	0x3da9f7a1	0.082991846
200	0x3d28c905	0.041207332
201	0xbdc81b3d	-0.0977082
202	0xbdd537ea	-0.104110554
203	0xbe02aa12	-0.12760189
204	0x3dff230c	0.124578565
205	0x3dde9e59	0.10870046
206	0x3dcc1ac5	0.099660434
207	0xbd5840ee	-0.052796297
208	0xbd9ba374	-0.075995356
209	0xbdbd75c0	-0.09250975
210	0xbe0ee766	-0.13955459
211	0xbc4ff686	-0.012693053
212	0x3c8521d8	0.01625149
213	0xbd182aa0	-0.037150025
214	0xbcc65dd2	-0.024214659
215	0xbd82304d	-0.06356869
216	0xbdf40060	-0.11914134
217	0xbe018564	-0.1264854
218	0x3da490fe	0.080354676
219	0xbdbcc1b7	-0.09216636
220	0xbdef91f1	-0.11697758
221	0xbd0a4de0	-0.033765674
222	0x3be017cb	0.006838774
223	0x3deb374a	0.11485155
224	0x3d864675	0.06556407
225	0xbcdb0c4a	-0.026739258
226	0x3da8a929	0.0823539
227	0x3d56c910	0.052437842
228	0xbe005226	-0.12531337
229	0xbe1cbfa4	-0.1530748
230	0xbe15e783	-0.14639096
231	0x3da0a64d	0.07844219
232	0x3d2601e6	0.040529154
233	0xbdb09215	-0.08621613
234	0xbc9bf5bf	-0.01903808
235	0x3d3f6ed5	0.046736557
236	0xbd0727e8	-0.032997042
237	0xbde9befd	-0.11413381
238	0xbbf0b6f3	-0.007346028
239	0xbd90b0fe	-0.070650086
240	0x3d94fb65	0.07274512
241	0x3cf27511	0.029596837
242	0x3de856c0	0.11344671
243	0xbc20bc69	-0.0098105455
244	0x3db203f4	0.0869216
245	0xbde1ed4f	-0.11031591
246	0xbb3758a9	-0.002797643
247	0xbda5c09a	-0.080933765
248	0xbe00efed	-0.12591524
249	0xbdd498d9	-0.10380716
250	0xbda1b040	-0.07894945
251	0xbe0c156b	-0.13680045
252	0x3d1f7349	0.038928304
253	0x3d216ab8	0.039408416
254	0xbd47db48	-0.048793107
255	0xbd058308	-0.032595664

model.2.bias f4 [32]
0	0x3d09fc3d	0.03368782
1	0x3e946ecd	0.28990784
2	0x3dee6080	0.116395
3	0xbdfb6bcf	-0.12276422
4	0x3d52ef50	0.051497757
5	0xbe16e2b6	-0.14734921
6	0x3e716d53	0.2357686
7	0xbc30ffd7	-0.0108031845
8	0xbe1da096	-0.1539329
9	0x3dc3b131	0.09555281
10	0x3e29c31a	0.16578332
11	0x3e204525	0.15651377
12	0xbdaf3805	-0.08555607
13	0xbe0c834d	-0.13721962
14	0x3d0084b2	0.031376548
15	0x3e90cd25	0.28281513
16	0x3cceaa48	0.02522768
17	0xbe0b52c9	-0.13605799
18	0xbbbe3b17	-0.005805384
19	0xbe02833c	-0.12745374
20	0xbe18162a	-0.14852205
21	0x3dadd02a	0.0848697
22	0xbea2ceb0	-0.31798315
23	0xbe1b62f8	-0.15174472
24	0xbe175261	-0.14777519
25	0x3dfe69d2	0.124225274
26	0xbee19cb2	-0.44064862
27	0xbedfe57e	-0.43729776
28	0xbda6c721	-0.081434496
29	0xbd68d29f	-0.05684149
30	0xbcd8b7db	-0.026454857
31	0x3e124219	0.14283027

model.4.weight f4 [16, 32]
0	0xbc7b4383	-0.01533592
1	0x3e77c7c4	0.24197298
2	0xbdadcd53	-0.08486428
3	0x3c5fe0c0	0.013664424
4	0x3e39a8e5	0.18130834
5	0x3ef28308	0.47365594
6	0xbe9b0717	-0.30278847
7	0x3cb8c395	0.022554198
8	0xbd23e2a3	-0.04001106
9	0xbdc13336	-0.09433596
10	0x3da85ae9	0.08220465
11	0x3e89d61c	0.26921165
12	0x3e98d3fd	0.29849234
13	0x3f248c71	0.64276797
14	0x3d8fe695	0.07026402
15	0xbdd21be8	-0.10259229
16	0x3e142453	0.14466982
17	0xbeec1233	-0.46107635
18	0x3e0feb42	0.14054587
19	0x3ed763b3	0.42068252
20	0x3e6067c0	0.21914577
21	0x3b68adf9	0.0035504086
22	0x3d697827	0.05699935
23	0xbc6df2e6	-0.0145232435
24	0x3e5d2c3e	0.21598908
25	0xbd26f3b4	-0.040759757
26	0xbe617b9c	-0.2201981
27	0x3de4a414	0.11164108
28	0x3b57da49	0.0032936505
29	0xbe3045d8	-0.17214143
30	0xbdef70ad	-0.11691413
31	0xbfbcf771	-1.4763013
32	0xbf5f123b	-0.8713719
33	0xbe86dc5a	-0.2633999
34	0x3dca8849	0.098892756
35	0xbc6140fb	-0.013748403
36	0x3e782d66	0.24236068
37	0xbf92c0db	-1.1465105
38	0x3d6360c3	0.0555122
39	0xbe50dcf8	-0.20396793
40	0x3d8a00b1	0.06738413
41	0x3e394e7d	0.18096347
42	0x3e7eee25	0.24895532
43	0x3e8820be	0.2658748
44	0x3d6684ec	0.056279108
45	0xbece6c86	-0.40317172
46	0x3e370669	0.17873539
47	0x3e83491c	0.25641716
48	0xbedf3694	-0.43596327
49	0x3ec9a57a	0.3938406
50	0x3e3e108a	0.18560997
51	0x3d7265c3	0.05917908
52	0xbe2efc41	-0.17088415
53	0xbec3598a	-0.3815425
54	0xbe10dac4	-0.14145952
55	0x3e1e3c35	0.15452655
56	0xbc8c814e	-0.017151501
57	0x3e5f2cfe	0.21794507
58	0x3edc8563	0.43070516
59	0x3f033804	0.5125735
60	0xbdff4a5e	-0.12465356
61	0xbe7b784b	-0.24557607
62	0xbf1210ce	-0.5705689
63	0x3e223557	0.1584066
64	0x3eb0acaa	0.34506732
65	0x3e8d0d2d	0.27549115
66	0x3db89ac9	0.09013898
67	0xbe16be8a	-0.14721122
68	0x3e37cf4c	0.17950171
69	0x3f148525	0.5801566
70	0x3e89fa23	0.26948652
71	0x3e10abc5	0.14128025
72	0x3e0bb35f	0.13642643
73	0xbe80d81a	-0.25164872
74	0xbe8598fe	-0.26093286
75	0x3e79219f	0.24329232
76	0x3d8cd541	0.068766125
77	0xbec1352b	-0.37735876
78	0x3da4b0a2	0.080415025
79	0xbf21e46f	-0.63239187
80	0x3ec3750d	0.3817524
81	0xbede8f1a	-0.43468553
82	0xbe8715dc	-0.26383865
83	0x3e8aea30	0.27131796
84	0x3e3d5930	0.18491054
85	0xbd36f65f	-0.04466855
86	0xbdbc0e0e	-0.09182368
87	0x3dda6b87	0.106650405
88	0x3dd50181	0.104006775
89	0x3b89cf0c	0.00420559
90	0xbeaef6b8	-0.34172606
91	0x3f0460bc	0.51710105
92	0xbbaff203	-0.005369426
93	0x3e732d22	0.23747686
94	0x3eb0edff	0.34556577
95	0xbe13f311	-0.14448191
96	0xbd8e38ec	-0.06944451
97	0xbcb5cd31	-0.02219257
98	0xbd25f3c3	-0.040515672
99	0xbd425fb3	-0.047454547
100	0x3d6c677a	0.05771587
101	0xbdf7d65f	-0.12101435
102	0xbe19e163	-0.15027384
103	0xbd26c19b	-0.04071198
104	0xbd01f1d0	-0.03172475
105	0x3d398328	0.045291096
106	0x3dcb1231	0.09915579
107	0xbd39397e	-0.045220844
108	0x3daba748	0.08381516
109	0x3d652972	0.05594773
110	0xbbe5cbaa	-0.007012804
111	0xbe23dad1	-0.1600144
112	0xbcb55f8b	-0.022140285
113	0xbdbb8389	-0.09155948
114	0xbd800d63	-0.06252553
115	0xbdd73522	-0.10508181
116	0xbdebe547	-0.115183406
117	0xbd9f5974	-0.07780734
118	0xbe18eecd	-0.14934845
119	0xbc3ce679	-0.011529558
120	0xbe0e3c12	-0.13890103
121	0xbe22eb7b	-0.15910141
122	0x3d11c4e3	0.035588156
123	0x3db37e60	0.087643385
124	0x3e2faba3	0.17155318
125	0xbd117fac	-0.035522148
126	0xbdf4d738	-0.11955112
127	0x3d86a5b4	0.06574574
128	0x3cd0acd8	0.025473043
129	0x3df07b8c	0.11742315
130	0xbe4861d1	-0.19568564
131	0xbd9e3956	-0.0772578
132	0xbd6dcff2	-0.05805964
133	0xbd5dee2d	-0.05418222
134	0xbb3b0552	-0.0028537107
135	0xbe0eaad3	-0.13932352
136	0x3d29654d	0.041356374
137	0xbf0067ff	-0.50158685
138	0xbf297a6b	-0.6620242
139	0x3e3c48c4	0.18387133
140	0x3ee9b565	0.45646206
141	0x3f17d296	0.59305704
142	0x3e454fac	0.19268674
143	0xbf0bd7f9	-0.54626423
144	0xbe167b76	-0.14695534
145	0xbd00cfa5	-0.031448025
146	0x3d7b4767	0.06134739
147	0x3d70aa7e	0.058756344
148	0x3e42b51f	0.19014405
149	0x3dd853c7	0.10562854
150	0x3e860231	0.26173547
151	0x3e6ad4f3	0.22932796
152	0xbdff8640	-0.12476778
153	0xbd74de91	-0.05978257
154	0x3db2ec6b	0.087364994
155	0x3f4c7884	0.7987139
156	0x3e2d6c21	0.16935779
157	0x3e075693	0.13216619
158	0xbe1cd6f0	-0.15316367
159	0x3db4d435	0.08829538
160	0x3e941bd5	0.28927484
161	0xbdd37303	-0.10324671
162	0xbe91395d	-0.28364077
163	0xbe17f201	-0.14838411
164	0xbc42eb70	-0.011896953
165	0x3f209f5a	0.6274315
166	0xbde9b3d2	-0.11411251
167	0x3e1092ac	0.14118451
168	0x3e58d225	0.21173914
169	0x3e640ff2	0.22271708
170	0x3dde5cf5	0.10857574
171	0x3e9a5d6c	0.301494
172	0xbe46fa51	-0.19431426
173	0xbf347887	-0.7049641
174	0x3d8f7618	0.070049465
175	0xbf1900be	-0.5976676
176	0xbdc12f48	-0.09432846
177	0x3dc2d153	0.09512582
178	0x3ec50b04	0.38484967
179	0x3f1ce30e	0.6128396
180	0x3e0db50a	0.13838592
181	0xbe604767	-0.21902238
182	0xbee99e0e	-0.456284
183	0xbda18d2f	-0.07888257
184	0x3e9a4501	0.3013077
185	0x3d8a37a7	0.06748896
186	0xbe7c42e3	-0.2463489
187	0xbf5033a9	-0.8132883
188	0xbee188a0	-0.4404955
189	0x3d52cc9e	0.05146467
190	0x3da6b121	0.081392534
191	0x3b770f31	0.0037698264
192	0xbd8bdcfb	-0.06829258
193	0x3df43f70	0.11926162
194	0xbee8a7b6	-0.45440453
195	0x3e253e06	0.16136941
196	0xbe329808	-0.17440808
197	0x3e12b326	0.14326152
198	0xbc3d4ebf	-0.011554419
199	0xbd26dcc9	-0.0407379
200	0x3e53fcbc	0.2070188
201	0xbe15f48b	-0.14644067
202	0x3b89795d	0.004195376
203	0xbef05f3b	-0.46947655
204	0xbe023170	-0.12714171
205	0xbdb67d64	-0.08910635
206	0x3e053283	0.1300755
207	0xbda53e25	-0.08068494
208	0x3cac949b	0.021066954
209	0x3eabfe6a	0.3359254
210	0xbf3937d9	-0.7235084
211	0x3dc86a96	0.09785955
212	0xbe29865f	-0.16555165
213	0xbe810ee1	-0.25206664
214	0xbeac9117	-0.33704445
215	0x3d8a6bff	0.0675888
216	0x3ea76c67	0.32699892
217	0xbe0e86f0	-0.13918662
218	0x3e0c90e4	0.13727146
219	0x3e7e9a68	0.24863589
220	0xbe1a90a4	-0.15094239
221	0xbc212980	-0.0098365545
222	0x3da5d7af	0.08097779
223	0xbe47bf90	-0.19506669
224	0x3ee2e76f	0.44317195
225	0x3e1a5caa	0.15074411
226	0xbe252be2	-0.16130021
227	0x3dfc424a	0.12317331
228	0x3e5d9762	0.21639779
229	0x3e18ce0b	0.14922349
230	0xbe8a6664	-0.27031243
231	0x3e924480	0.28567886
232	0x3de455a4	0.11149147
233	0x3e94542b	0.28970465
234	0xbb89d51e	-0.0042063138
235	0x3e53f79a	0.20699921
236	0xbf0a77d8	-0.5408912
237	0x3d8abbe1	0.06774116
238	0x3e843866	0.2582428
239	0xbf0da4d7	-0.5532965
240	0xbe548827	-0.20755063
241	0x3c98267a	0.018573035
242	0x3e95c58b	0.29252276
243	0x3cf24d51	0.029577883
244	0xbf26aa10	-0.65103245
245	0xbd071696	-0.032980524
246	0xbcba7624	-0.022761412
247	0x3e65208a	0.22375694
248	0xbed8d3b5	-0.4234902
249	0xbd63f3f2	-0.055652566
250	0x3d85444c	0.06507167
251	0x3f24114a	0.6408888
252	0x3e2dd9af	0.16977571
253	0x3e85605e	0.26050085
254	0x3de7384b	0.11290034
255	0xbc2ab015	-0.010417958

model.4.bias f4 [16]
0	0xbd42bc35	-0.04754277
1	0xbcc1ae97	-0.023642821
2	0x3db75dc2	0.0895343
3	0xbd9345a7	-0.071910195
4	0xbda01981	-0.078173645
5	0x3d3444b5	0.044010837
6	0xbf2a47d5	-0.66515857
7	0x3ea9b772	0.3314777
8	0x3cc4c011	0.024017366
9	0xbe22937e	-0.15876576
10	0x3c8070ac	0.015678726
11	0x3bd288c3	0.0064249947
12	0x3d9a5fe5	0.07537822
13	0xbd9564cd	-0.07294617
14	0x3e6d78c7	0.23190604
15	0x3c81e167	0.01585455

model.6.weight f4 [3, 16]
0	0xbf45e297	-0.77298874
1	0x3f0c1247	0.5471539
2	0xbed6543a	-0.41861135
3	0xbe3ace40	-0.1824274
4	0x3ceb085a	0.028690506
5	0x3ea21623	0.31657514
6	0x3e39d86f	0.18148969
7	0x3ce96b03	0.02849341
8	0x3f09a811	0.53772074
9	0xbefc7bde	-0.49313253
10	0xbf1e92d4	-0.6194279
11	0x3e0a3465	0.1349655
12	0xbc4f9f08	-0.012672193
13	0xbecd2632	-0.40068203
14	0x3f021dfc	0.50827
15	0xbea42d83	-0.32065973
16	0xbf05cb78	-0.52263594
17	0xbe5f0712	-0.21780041
18	0xbdd56074	-0.104187876
19	0xbe208d32	-0.15678862
20	0xbe98906f	-0.29797694
21	0xbe80db51	-0.25167325
22	0x3e6cdbbf	0.23130701
23	0xbdc0e9ff	-0.09419631
24	0xbf515525	-0.81770545
25	0xbf2b79da	-0.66982806
26	0xbe19f64b	-0.1503536
27	0x3f1596ba	0.58433115
28	0x3f205f00	0.6264496
29	0xbe780bcf	-0.24223255
30	0xbd359e2e	-0.044340305
31	0x3ee7a1f1	0.4524074
32	0xbe830e9f	-0.25597093
33	0x3e0768c6	0.13223562
34	0xbe998bd3	-0.2998949
35	0xbc06d154	-0.008228619
36	0xbf31a7f5	-0.6939691
37	0xbec8c28e	-0.39210933
38	0x3fcc35a9	1.5953876
39	0x3f265aaa	0.6498209
40	0x3e5d6890	0.21621919
41	0x3ec6e6a7	0.3884785
42	0x3eba502d	0.36389294
43	0xbe5539ef	-0.20822881
44	0x3f0e8d42	0.5568429
45	0xbe277368	-0.16352618
46	0xbe0f8043	-0.14013772
47	0x3e51c8e3	0.20486788

model.6.bias f4 [3]
0	0x3e509b02	0.20371631
1	0x3dc2bd3d	0.095087506
2	0xbe56902b	-0.20953433

exp_avg f4 [32, 1]
0	0xb9b5e100	-0.00034690648
1	0x39c35d88	0.00037262985
2	0x00000000	0.0
3	0xb999b049	-0.00029313777
4	0xb9c32b34	-0.00037225487
5	0xb82ac891	-4.071795e-05
6	0xb8c2a512	-9.2813876e-05
7	0x00000000	0.0
8	0x00000000	0.0
9	0x00000000	0.0
10	0x00000000	0.0
11	0x3a99ba5b	0.0011728512
12	0x00000000	0.0
13	0xbb21b2c3	-0.00246732
14	0xba557f93	-0.0008144315
15	0x00000000	0.0
16	0xb9828118	-0.00024891715
17	0xba74da0a	-0.00093403517
18	0x382f8abb	4.1852454e-05
19	0x00000000	0.0
20	0xb4dbea46	-4.0962385e-07
21	0x398f1bb4	0.00027295726
22	0x00000000	0.0
23	0x3935be81	0.00017332473
24	0xba38bd9d	-0.00070472975
25	0x00000000	0.0
26	0xb7a80754	-2.0030573e-05
27	0x00000000	0.0
28	0x00000000	0.0
29	0x00000000	0.0
30	0x392e41dc	0.00016618468
31	0xbbac2492	-0.005253383

exp_avg_sq f4 [32, 1]
0	0x3954d404	0.00020296877
1	0x3897c4e6	7.236916e-05
2	0x00000000	0.0
3	0x39204665	0.00015285013
4	0x3a043e32	0.0005044668
5	0x388f340c	6.828466e-05
6	0x37cd0482	2.4440003e-05
7	0x00000000	0.0
8	0x00000000	0.0
9	0x00000000	0.0
10	0x00000000	0.0
11	0x39b404fd	0.00034335992
12	0x00000000	0.0
13	0x3b1ea48f	0.0024206971
14	0x3a26d86c	0.0006364647
15	0x00000000	0.0
16	0x3927dcee	0.00016008664
17	0x39e08efd	0.00042831144
18	0x34d4bc5b	3.9625124e-07
19	0x00000000	0.0
20	0x35c709df	1.4829528e-06
21	0x390ebdf6	0.00013612941
22	0x00000000	0.0
23	0x3750025c	1.2398315e-05
24	0x3a12f40b	0.0005605823
25	0x00000000	0.0
26	0x34259a0a	1.5422862e-07
27	0x00000000	0.0
28	0x00000000	0.0
29	0x00000000	0.0
30	0x38246809	3.9197537e-05
31	0x3be23ae8	0.006903995

exp_avg f4 [32]
0	0x394ad372	0.0001934299
1	0xb8df21c8	-0.00010639761
2	0x00000000	0.0
3	0x39309ef8	0.00016843888
4	0x399ff3e7	0.00030508565
5	0x38ef766e	0.00011418467
6	0xb83dba2e	-4.5234505e-05
7	0x00000000	0.0
8	0x00000000	0.0
9	0x00000000	0.0
10	0x00000000	0.0
11	0xb99d0f8f	-0.00029956966
12	0x00000000	0.0
13	0x3754b9cb	1.2679443e-05
14	0x39b13528	0.00033799675
15	0x00000000	0.0
16	0x393b6510	0.00017871358
17	0x388c1929	6.680407e-05
18	0x382f8abd	4.185246e-05
19	0x00000000	0.0
20	0xb1d5c593	-6.2215775e-09
21	0xb8720a72	-5.7707024e-05
22	0x00000000	0.0
23	0xb7d21aa0	-2.5046349e-05
24	0x39a8a838	0.0003216879
25	0x00000000	0.0
26	0xb487603b	-2.5215726e-07
27	0x00000000	0.0
28	0x00000000	0.0
29	0x00000000	0.0
30	0xb920f5d8	-0.00015350373
31	0xb7436004	-1.1645261e-05

exp_avg_sq f4 [32]
0	0x343a4ffe	1.7351701e-07
1	0x33a95f26	7.886983e-08
2	0x00000000	0.0
3	0x340b2385	1.2958306e-07
4	0x34d56558	3.974808e-07
5	0x3377a40f	5.765838e-08
6	0x331d1579	3.657394e-08
7	0x00000000	0.0
8	0x00000000	0.0
9	0x00000000	0.0
10	0x00000000	0.0
11	0x35603d77	8.3535946e-07
12	0x00000000	0.0
13	0x355fec64	8.341797e-07
14	0x3522471d	6.0453186e-07
15	0x00000000	0.0
16	0x3446bd50	1.8509058e-07
17	0x3445433a	1.8371512e-07
18	0x34a41a92	3.0566713e-07
19	0x00000000	0.0
20	0x2fd14784	3.8067693e-10
21	0x33a48a00	7.661947e-08
22	0x00000000	0.0
23	0x33ab65ca	7.981323e-08
24	0x3510a0c3	5.387812e-07
25	0x00000000	0.0
26	0x2eb1de43	8.08851e-11
27	0x00000000	0.0
28	0x00000000	0.0
29	0x00000000	0.0
30	0x34bbe7f2	3.5000227e-07
31	0x36176b79	2.256331e-06

exp_avg f4 [16, 32]
0	0x00000000	0.0
1	0x00000000	0.0
2	0x00000000	0.0
3	0x00000000	0.0
4	0x00000000	0.0
5	0x00000000	0.0
6	0x00000000	0.0
7	0x00000000	0.0
8	0x00000000	0.0
9	0x00000000	0.0
10	0x00000000	0.0
11	0x00000000	0.0
12	0x00000000	0.0
13	0x00000000	0.0
14	0x00000000	0.0
15	0x00000000	0.0
16	0x00000000	0.0
17	0x00000000	0.0
18	0x00000000	0.0
19	0x00000000	0.0
20	0x00000000	0.0
21	0x00000000	0.0
22	0x00000000	0.0
23	0x00000000	0.0
24	0x00000000	0.0
25	0x00000000	0.0
26	0x00000000	0.0
27	0x00000000	0.0
28	0x00000000	0.0
29	0x00000000	0.0
30	0x00000000	0.0
31	0x00000000	0.0
32	0x00000004	6e-45
33	0x00000004	6e-45
34	0x00000000	0.0
35	0x00000004	6e-45
36	0x00000004	6e-45
37	0x00000004	6e-45
38	0x00000004	6e-45
39	0x00000000	0.0
40	0x00000000	0.0
41	0x00000000	0.0
42	0x00000000	0.0
43	0x80000004	-6e-45
44	0x00000000	0.0
45	0x00000004	6e-45
46	0x00000004	6e-45
47	0x00000000	0.0
48	0x00000004	6e-45
49	0x00000004	6e-45
50	0x00000004	6e-45
51	0x00000000	0.0
52	0x00000004	6e-45
53	0x00000004	6e-45
54	0x00000000	0.0
55	0x00000004	6e-45
56	0x00000004	6e-45
57	0x00000000	0.0
58	0x00000004	6e-45
59	0x00000000	0.0
60	0x00000000	0.0
61	0x00000000	0.0
62	0x80000004	-6e-45
63	0x00000004	6e-45
64	0x00000000	0.0
65	0x00000000	0.0
66	0x00000000	0.0
67	0x00000000	0.0
68	0x00000000	0.0
69	0x00000000	0.0
70	0x00000000	0.0
71	0x00000000	0.0
72	0x00000000	0.0
73	0x00000000	0.0
74	0x00000000	0.0
75	0x00000000	0.0
76	0x00000000	0.0
77	0x00000000	0.0
78	0x00000000	0.0
79	0x00000000	0.0
80	0x00000000	0.0
81	0x00000000	0.0
82	0x00000000	0.0
83	0x00000000	0.0
84	0x00000000	0.0
85	0x00000000	0.0
86	0x00000000	0.0
87	0x00000000	0.0
88	0x00000000	0.0
89	0x00000000	0.0
90	0x00000000	0.0
91	0x00000000	0.0
92	0x00000000	0.0
93	0x00000000	0.0
94	0x00000000	0.0
95	0x00000000	0.0
96	0x3a81fd61	0.0009917432
97	0x3a28ea7b	0.0006443632
98	0x00000000	0.0
99	0x3a83d086	0.0010056652
100	0x39e713ed	0.000440746
101	0x3a80e76c	0.0009834594
102	0x3a524198	0.00080206385
103	0x00000000	0.0
104	0x00000000	0.0
105	0x00000000	0.0
106	0x00000000	0.0
107	0xb6a9195b	-5.0395442e-06
108	0x00000000	0.0
109	0xb7d869da	-2.5798498e-05
110	0x3a9611de	0.0011449417
111	0x00000000	0.0
112	0x39b3bfe8	0.00034284522
113	0x3a244b75	0.00062673475
114	0xb69d2637	-4.6834134e-06
115	0x00000000	0.0
116	0x002d0a16	4.136215e-39
117	0x39b4ec8e	0.00034508522
118	0x00000000	0.0
119	0xb79e0805	-1.8838802e-05
120	0x3a92202c	0.0011148504
121	0x00000000	0.0
122	0x809c6874	-1.4363808e-38
123	0x00000000	0.0
124	0x00000000	0.0
125	0x00000000	0.0
126	0xb801da9d	-3.0959596e-05
127	0xb8072950	-3.2224983e-05
128	0x00000004	6e-45
129	0x00000004	6e-45
130	0x00000000	0.0
131	0x00000004	6e-45
132	0x00000004	6e-45
133	0x00000004	6e-45
134	0x00000004	6e-45
135	0x00000000	0.0
136	0x00000000	0.0
137	0x00000000	0.0
138	0x00000000	0.0
139	0x00000004	6e-45
140	0x00000000	0.0
141	0x00000000	0.0
142	0x00000004	6e-45
143	0x00000000	0.0
144	0x00000004	6e-45
145	0x00000000	0.0
146	0x00000004	6e-45
147	0x00000000	0.0
148	0x00000000	0.0
149	0x00000000	0.0
150	0x00000000	0.0
151	0x00000004	6e-45
152	0x00000004	6e-45
153	0x00000000	0.0
154	0x00000000	0.0
155	0x00000000	0.0
156	0x00000000	0.0
157	0x00000000	0.0
158	0x00000004	6e-45
159	0x00000000	0.0
160	0x00000004	6e-45
161	0x00000004	6e-45
162	0x00000000	0.0
163	0x00000004	6e-45
164	0x00000004	6e-45
165	0x00000004	6e-45
166	0x00000004	6e-45
167	0x00000000	0.0
168	0x00000000	0.0
169	0x00000000	0.0
170	0x00000000	0.0
171	0x00000004	6e-45
172	0x00000000	0.0
173	0x00000004	6e-45
174	0x00000004	6e-45
175	0x00000000	0.0
176	0x00000004	6e-45
177	0x00000004	6e-45
178	0x00000004	6e-45
179	0x00000000	0.0
180	0x00000004	6e-45
181	0x00000004	6e-45
182	0x00000000	0.0
183	0x00000004	6e-45
184	0x00000004	6e-45
185	0x00000000	0.0
186	0x00000004	6e-45
187	0x00000000	0.0
188	0x00000000	0.0
189	0x00000000	0.0
190	0x00000004	6e-45
191	0x00000004	6e-45
192	0x00000004	6e-45
193	0x00000004	6e-45
194	0x00000000	0.0
195	0x00000004	6e-45
196	0x00000004	6e-45
197	0x00000004	6e-45
198	0x00000004	6e-45
199	0x00000000	0.0
200	0x00000000	0.0
201	0x00000000	0.0
202	0x00000000	0.0
203	0x00000004	6e-45
204	0x00000000	0.0
205	0x00000004	6e-45
206	0x00000004	6e-45
207	0x00000000	0.0
208	0x00000004	6e-45
209	0x00000004	6e-45
210	0x00000004	6e-45
211	0x00000000	0.0
212	0x00000004	6e-45
213	0x00000004	6e-45
214	0x00000000	0.0
215	0x00000004	6e-45
216	0x00000004	6e-45
217	0x00000000	0.0
218	0x00000004	6e-45
219	0x00000000	0.0
220	0x00000000	0.0
221	0x00000000	0.0
222	0x80000004	-6e-45
223	0x00000004	6e-45
224	0x00000004	6e-45
225	0x00000004	6e-45
226	0x00000000	0.0
227	0x00000004	6e-45
228	0x00000004	6e-45
229	0x00000004	6e-45
230	0x00000004	6e-45
231	0x00000000	0.0
232	0x00000000	0.0
233	0x00000000	0.0
234	0x00000000	0.0
235	0x00000004	6e-45
236	0x00000000	0.0
237	0x00000004	6e-45
238	0x00000004	6e-45
239	0x00000000	0.0
240	0x00000004	6e-45
241	0x00000004	6e-45
242	0x00000004	6e-45
243	0x00000000	0.0
244	0x00000004	6e-45
245	0x00000004	6e-45
246	0x00000000	0.0
247	0x00000004	6e-45
248	0x00000004	6e-45
249	0x00000000	0.0
250	0x00000004	6e-45
251	0x00000000	0.0
252	0x00000000	0.0
253	0x00000000	0.0
254	0x00000004	6e-45
255	0x00000004	6e-45
