models/best_helix.ckpt (torch, 67362 bytes, 48 tensors)

time_embed.0.weight f4 [32, 1]
0	0x3f4803ae	0.78130615
1	0x3f100e8d	0.562722
2	0xbf552f5e	-0.832754
3	0x3f49bc5f	0.78803056
4	0x3e8d44d1	0.27591565
5	0x3f4ccd69	0.8000093
6	0x3f39ded8	0.7260566
7	0xbf48112e	-0.78151214
8	0xbf529f16	-0.82273996
9	0xbf1ff3a2	-0.6248113
10	0x3bdabe00	0.006675482
11	0xbc25cc02	-0.01011944
12	0xbf1712b0	-0.5901289
13	0x3cb35534	0.021891214
14	0x3f540844	0.8282511
15	0xbf4da878	-0.8033519
16	0x3ed5f330	0.417871
17	0x3f0abe9a	0.54197085
18	0xbe78add6	-0.24285063
19	0xbf501b6a	-0.8129183
20	0x3d998358	0.07495755
21	0x3edf1fa6	0.43578833
22	0xbed013f0	-0.4064021
23	0xbb868d20	-0.004106179
24	0x3f4a59c1	0.79043204
25	0xbecd8bb8	-0.4014566
26	0x3f2dec54	0.67938733
27	0xbf486d4e	-0.78291786
28	0xbf457c40	-0.77142715
29	0xbeade55c	-0.3396405
30	0xbc1ff5b9	-0.009763175
31	0x3cf95d04	0.030439861

time_embed.0.bias f4 [32]
0	0x3eb8bda3	0.3608218
1	0x3eb2a89c	0.34894264
2	0x3f2bb0e8	0.6706681
3	0x3d8bd813	0.06828322
4	0x3e549eaf	0.20763658
5	0x3e67a3cf	0.22621082
6	0xbf22239e	-0.633356
7	0x3e1ef888	0.15524495
8	0x3f1f0ad0	0.62125874
9	0xbe75b438	-0.23994529
10	0xbf3d46e0	-0.7393627
11	0x3f8bfe35	1.0936953
12	0x3eb16578	0.34647727
13	0xbec4b223	-0.38417158
14	0x3e9f4e05	0.31114212
15	0xbea5fd04	-0.32419598
16	0xbcf34420	-0.02969557
17	0xbf65e8db	-0.89808434
18	0x3fb74feb	1.4321264
19	0x3e2a7ed8	0.1664995
20	0xbeb75934	-0.35810244
21	0xbf0bda72	-0.54630196
22	0xbecca200	-0.39967346
23	0x3f011e7c	0.5043714
24	0x3f62946f	0.8850774
25	0xbef3ae98	-0.47594142
26	0xbf914815	-1.1350123
27	0x3e6c4498	0.23073041
28	0x3ef97cd0	0.48728037
29	0xbf1051b0	-0.56374645
30	0x3f459c23	0.7719137
31	0xbf4dbe30	-0.8036833

time_embed.2.weight f4 [16, 32]
0	0x3dae8c36	0.08522837
1	0xbdd1af78	-0.10238546
2	0x3e0b2f2c	0.13592213
3	0x3d9e536a	0.07730754
4	0x3dcf72cd	0.101293184
5	0xbe1649a4	-0.14676529
6	0x3d37232b	0.044711273
7	0xbde4d733	-0.111738585
8	0xbd003e81	-0.03130961
9	0xbd05c956	-0.032662712
10	0xbd729aef	-0.059229787
11	0xbcd814a7	-0.026377035
12	0x3d814981	0.06312848
13	0x3c1709bf	0.009218632
14	0xbdf39844	-0.11894277
15	0xbd7ea41b	-0.062168222
16	0x3ca1fbf8	0.019773468
17	0x3e1a2028	0.15051329
18	0x3c706b1a	0.0146739725
19	0xbd82a3e3	-0.06378915
20	0x3e1dceae	0.15410873
21	0x3d30c5ba	0.043157317
22	0x3de76261	0.11298061
23	0xbe0e36b5	-0.13888057
24	0xbdeb5eae	-0.11492668
25	0x3dff0fbb	0.12454172
26	0x3d6d870d	0.057990123
27	0x3e2482bb	0.16065495
28	0x3e15a003	0.14611821
29	0xbe2db0bb	-0.16961949
30	0xbd9a6956	-0.075396225
31	0xbe2a432d	-0.16627188
32	0x3d3765f4	0.044774964
33	0x3e004a31	0.12528302
34	0x3e255128	0.1614424
35	0xbe2dbd6f	-0.16966794
36	0xbe38df2d	-0.18053885
37	0xbbde9792	-0.006792971
38	0xbcd17a0d	-0.025570894
39	0x3d9ff989	0.07811267
40	0x3e264e7b	0.16240875
41	0x3ca5f3f2	0.020257924
42	0xbe22c65c	-0.1589598
43	0x3f5179b8	0.81826353
44	0xbe11dfa0	-0.14245462
45	0x3df68f43	0.12039044
46	0x3e1dc8c7	0.15408622
47	0xbe0ed7d1	-0.13949515
48	0xbd5b4967	-0.0535368
49	0x3e0fa3ea	0.14027372
50	0x3ede3e80	0.4340706
51	0x3e0c5dff	0.13707732
52	0xbe1890a3	-0.14898925
53	0x3e108e3b	0.14116757
54	0xbcfba9b1	-0.030720564
55	0xbe3755c4	-0.1790381
56	0x3de5859e	0.11207126
57	0x3dd21fef	0.10259997
58	0x3d81a2b0	0.06329858
59	0xbdd0396e	-0.10167204
60	0xbde013a6	-0.10941248
61	0xbe1509da	-0.1455454
62	0x3efef2e4	0.49794686
63	0x3d8a44e7	0.06751423
64	0x3ddfa8d5	0.10920874
65	0x3ce4abf5	0.027914027
66	0xbe08292d	-0.13296957
67	0xbdd7dfb5	-0.105407156
68	0xbe0fff32	-0.14062193
69	0xbe1c5036	-0.15264973
70	0x3dfb68ea	0.1227587
71	0x3dcc0975	0.09962741
72	0x3dcbe628	0.09956008
73	0xbd14fbd6	-0.036372982
74	0xbdc0df6c	-0.09417614
75	0xbe10990d	-0.14120884
76	0x3d42cd26	0.047558926
77	0xbd82d538	-0.063883245
78	0xbd56b675	-0.0524201
79	0x3be90902	0.0071116695
80	0xbe12663f	-0.14296816
81	0xbcb6944a	-0.022287507
82	0x3da49358	0.08035916
83	0xbe198097	-0.1499046
84	0x3e04caba	0.12967959
85	0x3d9ce980	0.07661724
86	0xbd1bce86	-0.038038753
87	0xbddebcdc	-0.10875866
88	0x3d9636dd	0.07334683
89	0x3df9c2bd	0.121953465
90	0x3c4e4223	0.01258901
91	0xbbfee61c	-0.007778896
92	0x3df3e1a6	0.119082734
93	0x3c36c706	0.011155849
94	0x3db135d7	0.08652847
95	0x3e0409b3	0.12894325
96	0x3ca85b41	0.020551326
97	0x3d9a28b8	0.07527298
98	0xbd998167	-0.07495385
99	0x3ca9d5a5	0.020731756
100	0x3e27aa20	0.16373491
101	0x3de2968f	0.11063873
102	0xbe3ad23a	-0.18244258
103	0x3d96251f	0.07331299
104	0x3d1f3263	0.038866412
105	0xbdd0329d	-0.10165904
106	0xbca7dff6	-0.020492535
107	0x3d6d005d	0.057861675
108	0x3c666c59	0.014063918
109	0xbdf5b083	-0.119965576
110	0xbda77e58	-0.08178395
111	0x3d676c36	0.056499682
112	0x3d2c3d16	0.042050444
113	0xbccff4d6	-0.025385302
114	0xbad84fa4	-0.0016503227
115	0x398eb3f7	0.00027218435
116	0x3da0fe81	0.07861043
117	0xbe38fc83	-0.18065076
118	0x3dcf2f35	0.10116426
119	0x3e5feef0	0.21868491
120	0xbd1f1626	-0.03883948
121	0xbe111b2e	-0.14170524
122	0xbd459d82	-0.048245914
123	0x3d63d8c6	0.055626653
124	0xbd1c2f71	-0.03813118
125	0xbddac9b5	-0.10683004
126	0xbdd8dcee	-0.10589014
127	0x3d51fe70	0.05126804
128	0xbcb6b05b	-0.02230089
129	0xbe12091b	-0.14261286
130	0x3d6d43d5	0.057926018
131	0xbe4f316d	-0.20233698
132	0xbd13585d	-0.03597294
133	0xbda19478	-0.07889646
134	0xbe07633e	-0.13221452
135	0xbdaf9231	-0.08572806
136	0x3cdfd2b8	0.027322158
137	0xbe256990	-0.1615355
138	0x3d4cfd99	0.050046537
139	0x3df87ff4	0.1213378
140	0xbca9727b	-0.020684471
141	0xbceddfae	-0.029037323
142	0x3d3e5690	0.04646927
143	0x3daf91ea	0.08572753
144	0xbe11ca35	-0.14237292
145	0x3ca8535a	0.020547558
146	0x3de96a59	0.11397237
147	0xbe0cbc52	-0.13743713
148	0x3deb3c84	0.11486152
149	0x3df9d6fd	0.12199209
150	0x3e31c44b	0.17360036
151	0x3e00295f	0.12515782
152	0xbd02edbf	-0.031965014
153	0x3de06a04	0.10957721
154	0xbda78b7f	-0.08180904
155	0xbe2bc000	-0.16772461
156	0xbe33ecfd	-0.17570873
157	0xbd7a982c	-0.06118028
158	0xbd0a7548	-0.033803254
159	0xbdcef64b	-0.101055704
160	0x3d86da45	0.065846
161	0xbe44076d	-0.19143458
162	0x3e170a11	0.14749934
163	0xbc845086	-0.016151678
164	0xbdf2b024	-0.118500024
165	0x3da24519	0.079233356
166	0x3d56564a	0.052328385
167	0xbde6df96	-0.112731144
168	0x3df6d1bf	0.12051725
169	0xbccf57a2	-0.025310341
170	0xbe1f03a9	-0.1552874
171	0xbed425ae	-0.41434997
172	0xbda8634e	-0.08222066
173	0xbbefe1da	-0.007320625
174	0x3d7f5d5b	0.06234489
175	0xbe2b0075	-0.16699393
176	0x3e023161	0.12714149
177	0x3dfc6f09	0.12325866
178	0x3d812dfa	0.063075975
179	0x3e0db44a	0.13838306
180	0x3e0cf676	0.13765892
181	0xbe36066d	-0.17775889
182	0x3e2e17c6	0.17001256
183	0xbdad7bef	-0.08470904
184	0xbe0c7622	-0.13716939
185	0xbd3a4622	-0.04547704
186	0x3d77dad1	0.060511414
187	0x3e0bed17	0.13664661
188	0xbdc4a5af	-0.09601914
189	0xbd388a0c	-0.045053527
190	0xbe2f4269	-0.17115177
191	0x3e7db2be	0.24775216
192	0x3c04a180	0.008095145
193	0xbdd8c3c3	-0.105842136
194	0xbd9801bb	-0.07422205
195	0x3e21862a	0.15773836
196	0xbcf1370b	-0.029445192
197	0xbdb7e0ee	-0.08978449
198	0xbe13df62	-0.14440683
199	0x3e328cb9	0.17436494
200	0xbddc4005	-0.10754398
201	0xbd2656b3	-0.040610027
202	0xbe072b68	-0.13200152
203	0xbbe7dfa0	-0.0070762187
204	0xbe314b52	-0.17313889
205	0x3d4735c2	0.04863525
206	0x3d6f5a31	0.058435623
207	0x3cfeb771	0.031093331
208	0x3cad1b43	0.021131163
209	0x3dd98080	0.106202126
210	0x3e456824	0.19278008
211	0x3d676a1d	0.056497682
212	0x3d3c96dc	0.04604231
213	0x3dde7225	0.10861615
214	0x3d529276	0.051409207
215	0xbe450deb	-0.1924359
216	0xbc68bea3	-0.014205608
217	0xbe19454f	-0.14967845
218	0x3df48bb8	0.11940712
219	0xbd9e6a00	-0.07735062
220	0xbd7344ba	-0.059391715
221	0xbdcbf3d0	-0.09958613
222	0x3e548999	0.20755614
223	0x3c43f6e2	0.011960717
224	0x3df98839	0.121841855
225	0x3ce3feba	0.027831424
226	0xbd258ebe	-0.040419333
227	0xbdf52d27	-0.11971503
228	0x3db7c0cc	0.0897232
229	0x3e093319	0.13398398
230	0x3db01573	0.08597841
231	0x3db3ec05	0.087852515
232	0x3c7b653c	0.01534396
233	0xbe1a2972	-0.15054873
234	0xbbbd3c3d	-0.005775003
235	0xbe63ff3e	-0.22265336
236	0xbd51b058	-0.051193565
237	0x3daf683e	0.085648045
238	0xbc9eb66f	-0.0193741
239	0x39d61eeb	0.00040840296
240	0xbd4b66c8	-0.049658567
241	0x3d1e91b2	0.038713165
242	0x3ca261a7	0.019821955
243	0x3dd18308	0.1023007
244	0x3c1c6d3c	0.009547528
245	0xbd8d91ef	-0.069126
246	0x3e21d861	0.15805198
247	0xbe2dc606	-0.16970071
248	0xbe5710e4	-0.21002537
249	0xbe2b51f6	-0.16730484
250	0xbc86256c	-0.016375266
251	0xbe1488a8	-0.14505255
252	0x3c75f3b4	0.015011717
253	0xbc9ee561	-0.019396486
254	0xbee9cd29	-0.45664337
255	0x3c34445a	0.011002624

time_embed.2.bias f4 [16]
0	0x3cd47121	0.02593285
1	0x3e73402d	0.2375495
2	0x3b1c35b7	0.0023835727
3	0x3ed70651	0.41997007
4	0xbe3f569d	-0.18685384
5	0xbec090c6	-0.37610453
6	0xbd6b16f2	-0.05739493
7	0xbe4a3aa4	-0.19748932
8	0xbd97833a	-0.07398076
9	0xbd21a65f	-0.039465304
10	0xbed2814d	-0.41114274
11	0x3e6ce5aa	0.23134485
12	0xbcc8c1e8	-0.024506524
13	0xbe87715a	-0.26453668
14	0x3e44b949	0.19211306
15	0x3e14d57b	0.14534561

time_embed.4.weight f4 [8, 16]
0	0xbe0aa206	-0.1353837
1	0x3e0fe538	0.14052284
2	0x3d0c7e20	0.03429997
3	0xbe4253cf	-0.18977283
4	0xbe112575	-0.14174445
5	0x3db6e711	0.08930791
6	0x3e1fc356	0.15601858
7	0x3e21b47f	0.1579151
8	0xbe1e2100	-0.15442276
9	0x3dffc816	0.12489335
10	0x3bbb2140	0.005710751
11	0xbcc094ca	-0.023508448
12	0xbe4694fd	-0.19392772
13	0x3dbc24e5	0.091867246
14	0x3a3e11ce	0.0007250578
15	0x3e207c32	0.15672377
16	0xbdc334f0	-0.095315814
17	0x3e88832f	0.26662585
18	0xbe665044	-0.22491556
19	0xbe121af6	-0.14268097
20	0x3d819173	0.0632657
21	0xbd9c3875	-0.07627956
22	0x3e3fa57d	0.18715473
23	0xbe16c17e	-0.14722249
24	0xbd9c3257	-0.07626789
25	0xbb7859bb	-0.003789528
26	0xbc9c4e37	-0.019080264
27	0x3e1b08ca	0.15140072
28	0xbe46632b	-0.19373767
29	0x3e10ae62	0.14129022
30	0x3e45a8e7	0.19302712
31	0x3e73fb1a	0.23826256
32	0xbd4f2448	-0.05057171
33	0xbdb4974b	-0.08817919
34	0xbe0da0ca	-0.13830867
35	0xbe2278bc	-0.15866369
36	0xbdeec8cc	-0.11659393
37	0x3dd3eef6	0.103483126
38	0x3e40bd6e	0.18822262
39	0xbd482439	-0.04886267
40	0x3cb9431e	0.022615012
41	0x3dd00691	0.101575024
42	0x3d9954ff	0.07486915
43	0xbd7b3e7f	-0.061338898
44	0x3e00fafb	0.12595741
45	0x3df507df	0.11964392
46	0x3d75e08f	0.06002861
47	0xbdfe08ab	-0.12403997
48	0x3db482e4	0.08814028
49	0x3e2b76e0	0.16744566
50	0x3e025d64	0.12730938
51	0x3e25588f	0.16147064
52	0x3cb1853c	0.021669976
53	0xbdcfec47	-0.10152488
54	0xbdb71c5a	-0.089409545
55	0xbe074bd9	-0.13212527
56	0xbd87fcda	-0.066400245
57	0x3d8d9e55	0.06914965
58	0x3d8fb9e4	0.07017878
59	0x3e46f3f2	0.19428995
60	0xbe3f181a	-0.18661538
61	0xbe4ca258	-0.19983804
62	0x3e54891e	0.20755431
63	0xbe1b5852	-0.1517041
64	0xbd938d60	-0.072046995
65	0xbe4ddd25	-0.20103891
66	0xbe31da48	-0.17368424
67	0x3de5776b	0.11204418
68	0x3a594c00	0.0008289218
69	0xbe4ef3e7	-0.20210229
70	0x3e50bf42	0.20385459
71	0x3e6b2837	0.2296456
72	0x3db90fd1	0.0903622
73	0xbd7623b5	-0.060092647
74	0x3e62ee5b	0.22161238
75	0xbcac23ec	-0.021013223
76	0xbdd6434c	-0.104620546
77	0xbe736aa6	-0.23771152
78	0xbddfb506	-0.10923199
79	0xbbd83e06	-0.0065991906
80	0x3d3e9840	0.046531916
81	0x3df47db9	0.11938042
82	0xbe12141a	-0.1426548
83	0x3e2dd271	0.16974808
84	0xbdf4e0cf	-0.11956941
85	0xbd0b7a68	-0.034052283
86	0xbded00ba	-0.11572404
87	0xbe13f05e	-0.14447162
88	0xbe1ea871	-0.15493943
89	0xbd8b9950	-0.068163514
90	0xbe9f4c73	-0.31113014
91	0x3e0d5a01	0.13803865
92	0xbec10192	-0.3769651
93	0xbd51c3a8	-0.051211983
94	0x3e461893	0.19345312
95	0xbc589c58	-0.013220869
96	0x3e4bc21a	0.19898263
97	0x3e473825	0.19455011
98	0xbe590114	-0.21191818
99	0xbd6c7ca3	-0.05773605
100	0x3e484c63	0.19560389
101	0xbd508672	-0.050909467
102	0xbad01d3c	-0.0015877853
103	0xbe093d64	-0.13402325
104	0x3db49090	0.088166356
105	0xbdb8b985	-0.0901976
106	0x3d45d72c	0.048300907
107	0x3e0ac8cc	0.1355316
108	0x3cff3e71	0.031157704
109	0x3de0fb41	0.10985423
110	0xbdbc82e4	-0.09204653
111	0xbda7d5f8	-0.08195108
112	0x3e6d0bc0	0.23149014
113	0xbdcda7c0	-0.100417614
114	0xbd1fae30	-0.038984478
115	0xbcfc02b0	-0.030763
116	0x3e25f9a6	0.16208515
117	0xbe14d930	-0.14535975
118	0xbe1ce8bc	-0.15323156
119	0xbe26c298	-0.16285169
120	0xbdc2deec	-0.09515175
121	0x3e31881e	0.17337081
122	0xbdb902a0	-0.09033704
123	0xbd7d55c8	-0.061849385
124	0xbcf166c0	-0.02946794
125	0x3c5df420	0.0135469735
126	0x3ce96390	0.028489858
127	0xbb698b80	-0.0035636127

time_embed.4.bias f4 [8]
0	0xbd68bd33	-0.05682106
1	0x3c6d729a	0.014492655
2	0xbe24227a	-0.16028777
3	0x3eda32f4	0.42617
4	0x3e2f2cc7	0.17106925
5	0x3d32098b	0.043466132
6	0xbecc2751	-0.39873746
7	0x3e1de0dc	0.15417808

time_embed.6.weight f4 [3, 8]
0	0xbdb5d635	-0.088787474
1	0x3e084d5b	0.13310759
2	0x3e63b332	0.22236326
3	0x3cb82a80	0.022481203
4	0xbe3b2cf6	-0.1827887
5	0xbebdc805	-0.37066665
6	0x3dbd5ec9	0.092465945
7	0x3ea030ec	0.31287324
8	0xbdcfb45e	-0.10141824
9	0xbe1e277d	-0.15444751
10	0xbd96fbd3	-0.073722504
11	0xbeb9caf6	-0.3628766
12	0x3e92dc49	0.2868369
13	0x3df5444c	0.11975917
14	0xbe6135ed	-0.21993227
15	0xbe7200f6	-0.23633179
16	0x3e079c78	0.13243282
17	0xbe57d3c7	-0.2107688
18	0xbb8298a7	-0.0039854827
19	0x3d0019d0	0.031274617
20	0x3e78ffda	0.2431635
21	0x3de56f5c	0.11202881
22	0x3e109e4d	0.14122887
23	0xbe210bbd	-0.15727134

time_embed.6.bias f4 [3]
0	0xbe915617	-0.28385994
1	0xbe3e295e	-0.18570468
2	0xbed323ab	-0.4123815

model.0.weight f4 [64, 6]
0	0xbeacb903	-0.33734903
1	0xbb103100	-0.0022001863
2	0xbe4527ca	-0.1925346
3	0xbd4db634	-0.05022259
4	0xbeab80dd	-0.33496752
5	0x3de4667b	0.11152359
6	0xbf04fa63	-0.5194456
7	0x3e14d18b	0.1453306
8	0x3e64fa75	0.22361167
9	0xbe885735	-0.26629034
10	0xbec42d97	-0.38316032
11	0x3ed8ebff	0.4236755
12	0x3ecfe89b	0.4060715
13	0xbd8a781f	-0.067611925
14	0xbda1433b	-0.07874151
15	0xbea92c24	-0.3304149
16	0xbeb52d90	-0.35386324
17	0xbe847c60	-0.2587614
18	0x3e601bc8	0.21885598
19	0x3df55a1a	0.11980076
20	0xbe7b07ca	-0.2451469
21	0x3ec9ad15	0.39389864
22	0x3cf985a4	0.030459233
23	0xbe7eedb5	-0.24895366
24	0x3e55064e	0.20803186
25	0x3ea34c1d	0.31894007
26	0x3e240d9c	0.16020817
27	0x3eaa2056	0.33227795
28	0xbe163452	-0.14668396
29	0xbe927922	-0.28608042
30	0xbf4b4cda	-0.7941414
31	0xbeff6526	-0.49881858
32	0x3e163820	0.14669847
33	0x3ed8ca8a	0.42342025
34	0xbdef792a	-0.11693032
35	0x3e560a1b	0.20902292
36	0x3f4e7ca1	0.8065892
37	0x3d03205f	0.032013293
38	0x3d8c0864	0.06837538
39	0xbe753d30	-0.23949122
40	0xbe2b9a36	-0.16758046
41	0x3e4973c8	0.19673073
42	0x3eb16774	0.3464924
43	0xbeea9355	-0.4581553
44	0x3e2187c1	0.15774442
45	0x3ed2b15b	0.41150936
46	0xbe135ad4	-0.14390117
47	0xbe23637c	-0.15955919
48	0x3e3980b6	0.18115506
49	0xbe9a1a2d	-0.30098096
50	0x3e546fed	0.20745821
51	0x3e29e9eb	0.16593139
52	0x3e3a23d6	0.18177733
53	0xbdfec72c	-0.12440333
54	0x3f4b7f45	0.7949107
55	0x3ed92c0d	0.4241642
56	0x3eada388	0.33913827
57	0xbe80eed6	-0.25182217
58	0xbe31a912	-0.17349651
59	0xbe0809c6	-0.13284978
60	0xbec3d5e7	-0.38249132
61	0x3efbd61a	0.49186784
62	0x3ab1b58b	0.0013558132
63	0x3eb10a6d	0.34578267
64	0xbeafa87b	-0.34308228
65	0x3ed2efb5	0.41198507
66	0xbe8b3ae7	-0.27193376
67	0xbe786a35	-0.24259265
68	0x3c6092fe	0.013706921
69	0xbe009371	-0.12556244
70	0x3e7b5a9d	0.24546285
71	0xbe517f82	-0.20458797
72	0xbedb5a62	-0.42842394
73	0x3f6b94f0	0.92024136
74	0xbd57a9f2	-0.052652307
75	0x3e345c29	0.17613281
76	0x3e1cf9d1	0.15329672
77	0xbd0042a9	-0.031313572
78	0x3e752d81	0.2394314
79	0x3e36843f	0.17823885
80	0x3f19416f	0.5986547
81	0xbeb22e78	-0.34801078
82	0xbeb5b687	-0.3549082
83	0xbe95792d	-0.29194012
84	0xbeace80f	-0.33770797
85	0xbe8a94b7	-0.27066585
86	0x3eeb63c1	0.45974544
87	0x3eaca48a	0.33719283
88	0x3b7aa3f5	0.0038244699
89	0xbddc50f0	-0.10757625
90	0x3ea5d8fd	0.3239211
91	0xbf3ce440	-0.7378578
92	0x3da4e7af	0.08052003
93	0xbe08b8f2	-0.13351801
94	0x3e49b9d1	0.1969979
95	0x3e422cfb	0.18962471
96	0xbf3a999e	-0.7289065
97	0xbec774ec	-0.38956392
98	0xbe4fa161	-0.20276405
99	0x3d8765b5	0.06611196
100	0xbe8d40ae	-0.2758841
101	0x3c5b7099	0.013393545
102	0xbb464428	-0.0030253027
103	0xbed64978	-0.41852927
104	0x3e88299d	0.26594248
105	0x3ec56054	0.38550055
106	0x3e2e5424	0.17024285
107	0xbe6b7733	-0.2299469
108	0x3d8ba7b5	0.06819097
109	0xbf4d118a	-0.8010489
110	0xbe1489b8	-0.1450566
111	0x3e0e4d4e	0.13896677
112	0x3de31a44	0.11088994
113	0x3c9c0949	0.019047396
114	0x3c0ce11d	0.008598593
115	0xbd77b55f	-0.060475703
116	0xbe81de0a	-0.25364715
117	0xbf4500f5	-0.76954585
118	0x3df1579a	0.11784287
119	0x3dee28a1	0.11628843
120	0x3f04acd7	0.5182623
121	0x3dcbd4d0	0.099527
122	0xbf281ba3	-0.6566717
123	0x3d8e81d2	0.06958355
124	0xbdc90280	-0.0981493
125	0x3e26200b	0.16223161
126	0x3e28cd93	0.1648467
127	0xbeb53201	-0.35389712
128	0x3f079d67	0.5297455
129	0x3ecee834	0.40411532
130	0xbec9e2f1	-0.39430955
131	0x3e424a1d	0.18973584
132	0xbeb981d9	-0.36231878
133	0x3e5f91b7	0.2183293
134	0x3e3cfd45	0.1845599
135	0x3ea93626	0.33049124
136	0xbcedd43d	-0.029031867
137	0xbe9eb3d3	-0.3099657
138	0xbee1544a	-0.4400962
139	0xbf350347	-0.70708126
140	0xbe553d43	-0.2082415
141	0xbd124123	-0.03570665
142	0xbeebb984	-0.46039975
143	0x3d8fdbc9	0.070243426
144	0xbebfa6ed	-0.37432042
145	0x3f2a0d80	0.6642685
146	0x3eafbb52	0.34322602
147	0xbe1715e7	-0.14754449
148	0x3e976297	0.29567406
149	0xbe6535e2	-0.22383836
150	0xbe9777bc	-0.29583538
151	0x3a9b7034	0.0011859001
152	0xbe68b58b	-0.22725503
153	0x3d65559c	0.055989847
154	0xbe9497c9	-0.29022053
155	0x3d06344a	0.03276471
156	0xbf1cb0e7	-0.6120743
157	0xbe5f7f9c	-0.21826023
158	0x3f0b38a5	0.5438331
159	0x3e4f6704	0.20254141
160	0x3e833b6d	0.25631276
161	0x3de4f3e8	0.11179334
162	0xbf5356da	-0.825544
163	0x3f0df96c	0.5545871
164	0xbd8f81b2	-0.07007159
165	0xbe7cabd1	-0.24674918
166	0xbdf64119	-0.12024135
167	0x3e2c7d0e	0.1684458
168	0xbd86b48d	-0.06577406
169	0x3e88c8ee	0.26715797
170	0x3fa18fb1	1.2621976
171	0x3cd14551	0.025545748
172	0x3c3dd1d9	0.011585676
173	0x3e81f2f5	0.25380674
174	0xbf2fbc3f	-0.68646616
175	0xbf304980	-0.6886215
176	0xbcb12f10	-0.021628886
177	0x3e2631dd	0.16229959
178	0x3e2150b5	0.15753444
179	0xbc802852	-0.015644226
180	0xbea2115e	-0.31653875
181	0x3ef416c3	0.47673616
182	0xbf08cb02	-0.53434765
183	0x3ed21399	0.41030577
184	0x3dbc3a65	0.091908254
185	0xbeaaefcd	-0.33386078
186	0xbe8bbdd8	-0.27293277
187	0x3e17e988	0.14835179
188	0xbe3ec716	-0.18630633
189	0x3e875caf	0.264379
190	0x3de676c8	0.112531245
191	0xbe57d3db	-0.2107691
192	0x3e373fd8	0.17895448
193	0x3e098861	0.1343093
194	0x3f1e053b	0.6172673
195	0xbece49e0	-0.40290737
196	0x3e1ef6c5	0.15523823
197	0x3be44485	0.006966176
198	0xbd29179c	-0.04128228
199	0xbdb13fd1	-0.0865475
200	0x3df305d9	0.1186635
201	0xbef5d3b4	-0.4801308
202	0x3cbca1ac	0.02302631
203	0xbe82f10a	-0.25574523
204	0xbdd7a69e	-0.105298266
205	0x3e5ed4f0	0.21760917
206	0x3e6c498b	0.2307493
207	0xbe818248	-0.2529471
208	0xbeb376aa	-0.3505147
209	0x3db88194	0.0900909
210	0xbe20b359	-0.15693416
211	0xbf41d05a	-0.75708544
212	0x3e306b05	0.17228325
213	0xbcf9702f	-0.030449001
214	0xbe8df02f	-0.27722308
215	0xbe03bbf3	-0.12864666
216	0x3e836f0b	0.25670657
217	0xbee46af8	-0.4461286
218	0xbe139670	-0.14412856
219	0xbe1e7f26	-0.15478191
220	0xbe34657d	-0.1761684
221	0xbde1893b	-0.11012503
222	0xbe9e57da	-0.309264
223	0x3f315aa9	0.6927896
224	0x3f2d1b98	0.6762023
225	0x3db56213	0.08856597
226	0x3e2d1051	0.16900755
227	0xbd2a695f	-0.041604396
228	0xbdba6598	-0.09101409
229	0xbd905a09	-0.07048423
230	0xbec4f274	-0.38466227
231	0x3e99e034	0.30053866
232	0x3de508fa	0.11183353
233	0xbd474927	-0.048653748
234	0x3e8bb3cd	0.27285615
235	0xbe1f48a0	-0.15555048
236	0xbf8191bb	-1.0122598
237	0xbd83c92a	-0.064348534
238	0xbeab18fb	-0.33417496
239	0x3d5ca764	0.053870574
240	0xbef0ee7e	-0.47056955
241	0xbe338dc0	-0.17534542
242	0x3e750f1e	0.23931548
243	0xbe8ff68c	-0.28117788
244	0x3e00be5e	0.1257262
245	0xbe30c9d4	-0.17264491
246	0x3f1fb653	0.6238758
247	0xbe9f59d6	-0.31123227
248	0x3e0a7ede	0.13524958
249	0xbdfc1769	-0.12309153
250	0xbe65ee2f	-0.22454141
251	0xbec0ca2d	-0.37654248
252	0x3dc68126	0.09692602
253	0x3ec8e97a	0.39240628
254	0x3f02414f	0.50880903
255	0x3eacc10d	0.33741036

model.0.bias f4 [64]
0	0x3e3874fa	0.18013373
1	0xbe9bc59f	-0.3042421
2	0x3d34e794	0.044166163
3	0x3f1b0c99	0.605661
4	0x3ea2ef84	0.3182336
5	0x3ee5bb5e	0.44869512
6	0xbea94372	-0.3305927
7	0xbc7ebab6	-0.015547445
8	0x3f038627	0.51376575
9	0xbeea6103	-0.4577714
10	0xbe95eb36	-0.29281014
11	0x3f0c3cff	0.5478057
12	0xbe5f4d0d	-0.21806736
13	0xbe076156	-0.13220724
14	0x3e638771	0.22219636
15	0x3e6c6f65	0.23089369
16	0x3de51e50	0.11187422
17	0x3ece680c	0.40313756
18	0x3f0273ae	0.50957763
19	0x3eaf2097	0.34204552
20	0xbe61178b	-0.21981637
21	0x3e4dfee5	0.20116766
22	0x3edd578a	0.4323085
23	0xbde0ccf7	-0.10976594
24	0xbea1dc6f	-0.3161349
25	0x3daa7df5	0.08324806
26	0xbe86a8fa	-0.26300794
27	0x3f0ba765	0.545523
28	0xbdf88f0b	-0.12136658
29	0xbe8a2f33	-0.26989135
30	0xbe694a67	-0.22782288
31	0x3efedee6	0.49779433
32	0x3ed8942e	0.42300552
33	0x3f2c5210	0.6731272
34	0x3f1d42d8	0.6143012
35	0xbe803f63	-0.2504836
36	0x3eb87cec	0.36032808
37	0x3eaf10ea	0.34192592
38	0x3f0804f0	0.53132534
39	0xbe8cbc28	-0.27487302
40	0xbdcc036d	-0.09961591
41	0xbe6f48bb	-0.23367588
42	0xbeec14ae	-0.46109527
43	0x3ebf9106	0.37415332
44	0xbeb4517f	-0.35218427
45	0xbf0165ae	-0.50545776
46	0xbf1b2be5	-0.6061385
47	0xbdcf77b4	-0.101302534
48	0xbe12807a	-0.14306822
49	0xbe7a4b9f	-0.2444291
50	0x3c55733f	0.013027965
51	0xbeac9596	-0.33707875
52	0xbe332a6e	-0.17496654
53	0x3f31afe2	0.69409
54	0x3e7b8323	0.24561743
55	0xbe5e58cc	-0.21713561
56	0x3e2c4723	0.16824012
57	0xbeb6bc7f	-0.35690686
58	0x3f5e4aa6	0.86832654
59	0x3f0ada30	0.5423918
60	0xbeb710a9	-0.35754898
61	0xbe622cb2	-0.22087362
62	0x3d98d1be	0.0746188
63	0xbef9e1a4	-0.48804963

model.2.weight f4 [32, 64]
0	0x3db5e633	0.08881798
1	0xbe548fc9	-0.20757975
2	0xbd3dba87	-0.046320464
3	0xbde923de	-0.11383794
4	0x3d93d875	0.0721902
5	0x3daa7af8	0.08324236
6	0xbec64930	-0.38727713
7	0xbd8f8d90	-0.07009423
8	0xbebba659	-0.3665035
9	0xbdf6b5ff	-0.12046432
10	0x3d9251ef	0.07144534
11	0xbe1a5088	-0.15069783
12	0xbc609131	-0.013706491
13	0x3e1f7dec	0.15575379
14	0x3db37883	0.0876322
15	0xbe814722	-0.25249583
16	0xbcb01c0d	-0.02149775
17	0x3d85f992	0.065417424
18	0x3e189972	0.14902285
19	0x3d933d89	0.07189471
20	0x3e63a068	0.22229159
21	0xbba3068a	-0.0049751448
22	0x3e268396	0.16261134
23	0xbd068ece	-0.032851033
24	0xbde1c5c2	-0.110240474
25	0x3e18269b	0.14858477
26	0xbd029950	-0.03188449
27	0xbd929d7f	-0.07158946
28	0xbfbb7a7a	-1.4646752
29	0x3e01e739	0.1268586
30	0x3da6643d	0.08124588
31	0xbb9821be	-0.0046426943
32	0xbf86a330	-1.0518551
33	0xbde2862c	-0.110607475
34	0x3d94a58a	0.072581366
35	0x3d802883	0.06257727
36	0x3d1a66b1	0.03769559
37	0x3e2d2a73	0.16910724
38	0xbd23bcc7	-0.039974954
39	0xbe4f8706	-0.20266351
40	0x3e0139fb	0.12619774
41	0xbd904d01	-0.07045937
42	0xbda79357	-0.081824
43	0x3d1a7999	0.03771362
44	0xbc928f40	-0.017890573
45	0xbcf85418	-0.030313537
46	0x3cacbda1	0.021086516
47	0x3f34ccea	0.70625174
48	0x3de6ae9f	0.11263775
49	0x3d0a8444	0.033817545
50	0xbf030ec5	-0.5119441
51	0x3d61d06c	0.055130407
52	0xbeab5f9c	-0.33471382
53	0x3e07355e	0.13203952
54	0xbda96fe1	-0.08273292
55	0x3e248715	0.16067155
56	0xbd89fbbb	-0.06737467
57	0x3e53aef6	0.20672211
58	0xbbbd3cf1	-0.005775087
59	0x3e10cc57	0.1414045
60	0xbd8fc6a7	-0.07020312
61	0x3daa9721	0.08329607
62	0x3da0daa9	0.07854206
63	0x3dd967c0	0.10615492
64	0xbd397777	-0.045279946
65	0xbda4fab4	-0.0805563
66	0xbde103f6	-0.109870836
67	0x3dc4e3b2	0.09613742
68	0x3de1068d	0.109875776
69	0xbde3a752	-0.11115898
70	0x3bba3a5c	0.0056832265
71	0x3d346d7e	0.044049732
72	0xbd8470da	-0.06466837
73	0xbdf58a85	-0.11989311
74	0xbd39a35d	-0.04532181
75	0x3cabc860	0.02096957
76	0x3c679b6d	0.0141361775
77	0x3dd56ded	0.10421357
78	0xbc267ec5	-0.01016206
79	0x3da4602a	0.08026154
80	0xbcec9e91	-0.028884204
81	0xbd2c5f32	-0.042082973
82	0xbdba0e64	-0.09084776
83	0x3d40cbf5	0.04706951
84	0xbd74ca2c	-0.05976312
85	0xbde02c31	-0.10945929
86	0xbd815e99	-0.06316871
87	0xbdc13dea	-0.09435637
88	0xbde03a13	-0.10948577
89	0x3c01c175	0.007919659
90	0x3deed04e	0.11660825
91	0x3d8e8856	0.06959598
92	0xbd603a09	-0.054742847
93	0x3ce75718	0.028239772
94	0xbddc12ce	-0.10745774
95	0x3de99e05	0.11407093
96	0x3cd25378	0.025674567
97	0xbd885e34	-0.06658593
98	0x3d4696c5	0.04848363
99	0xbc263bf3	-0.010146129
100	0xbd25432c	-0.040347263
101	0xbc7f1bd7	-0.015570602
102	0xbddb865c	-0.107189864
103	0xbd64c784	-0.055854335
104	0xbd5dc810	-0.054145873
105	0x3db68508	0.089120924
106	0x3d2b7f25	0.0418693
107	0x3d0b2244	0.033968225
108	0xbda8dc64	-0.08245161
109	0x3cf0d890	0.02940014
110	0xbdcb472a	-0.09925683
111	0x3de38b72	0.111105815
112	0xbd91030a	-0.07080658
113	0x3d1e36d2	0.0386265
114	0xbdc6483c	-0.09681746
115	0xbdb87970	-0.09007537
116	0xbde1351e	-0.109964594
117	0xbd7cd279	-0.06172416
118	0x3d8d332a	0.068945244
119	0xbcdb4a73	-0.026768899
120	0xbdb9ae63	-0.09066465
121	0xbdfaf755	-0.12254206
122	0xbd460778	-0.048346967
123	0x3db87552	0.09006752
124	0xbd07243c	-0.03299354
125	0xbd9767f1	-0.07392872
126	0xbdae04a6	-0.0849698
127	0xbda53f4e	-0.08068715
128	0x3dd2f52a	0.103006676
129	0x3d760c17	0.060070124
130	0x3e509b8e	0.2037184
131	0x3e3d05db	0.18459265
132	0x3c86ab11	0.016438993
133	0xbdee32e6	-0.11630802
134	0x3ed079e5	0.40717998
135	0x3e4a2e19	0.19744147
136	0xbd6c4710	-0.057684958
137	0x3e5c7cb7	0.2153195
138	0x3e1bcbf5	0.15214522
139	0xbde991b0	-0.11404741
140	0xbe7f87de	-0.24954173
141	0x3aff9413	0.0019499086
142	0xbd2a9eb3	-0.041655254
143	0x3d89c80d	0.0672761
144	0x3afd9929	0.0019348013
145	0x3cab1a09	0.020886438
146	0xbe13b321	-0.14423801
147	0x3e5739c3	0.21018128
148	0xbe53c8d0	-0.20682073
149	0x3e49cdb6	0.19707379
150	0x3d9bcc53	0.07607331
151	0xbd451099	-0.048111532
152	0xbe8847b8	-0.26617217
153	0x3e089efa	0.13341895
154	0x3de3aefa	0.111173585
155	0x3d8cadb2	0.06869067
156	0x3e9482c4	0.29006016
157	0xbe805599	-0.25065306
158	0x3c864191	0.016388686
159	0x3c17fea9	0.009277024
160	0x3d74cd7f	0.05976629
161	0xbe171a0b	-0.14756028
162	0xbd63db70	-0.055629194
163	0x3c919b3c	0.017774217
164	0x3cebb6e5	0.028773734
165	0xbe0c4629	-0.13698639
166	0xbd81050a	-0.06299789
167	0x3e38861b	0.18019907
168	0xbe83ccf0	-0.25742292
169	0x3c77af53	0.015117484
170	0x3e8b2014	0.2717291
171	0x3c3a4e40	0.011371195
172	0x3deafb5a	0.11473723
173	0xbd0502cb	-0.032473367
174	0x3e2cbed4	0.1686967
175	0xbe41c073	-0.1892107
176	0x3e4ecb0d	0.20194645
177	0x3de7db54	0.113211304
178	0xbe1b40af	-0.15161394
179	0xbd828d8f	-0.063746564
180	0x3d8c2d70	0.06844604
181	0x3d4763fb	0.048679333
182	0x3eea6e7e	0.45787424
183	0x3e017a83	0.12644391
184	0x3e18dcd1	0.14927985
185	0xbe19d7d2	-0.15023735
186	0x3c5379f5	0.012907495
187	0x3d39367f	0.045217987
188	0x3d95118e	0.07278739
189	0x3e347fb5	0.17626841
190	0xbf4e7bb0	-0.8065748
191	0x3cc54bc7	0.024083985
192	0xbe192b2b	-0.14957874
193	0x3ed8a9b6	0.4231698
194	0xbd9354b8	-0.07193893
195	0xbe07934c	-0.13239783
196	0x3e05cacb	0.1306564
197	0xbe4ccdb4	-0.20000345
198	0x3ebad5e6	0.36491317
199	0x3e381c3d	0.17979522
200	0x3e888f98	0.26672053
201	0x3e4883bd	0.19581504
202	0x3cf859af	0.030316202
203	0xbe74fd29	-0.23924698
204	0x3cad417e	0.021149393
205	0x3e840d34	0.25791323
206	0x3e494c1e	0.19657943
207	0xbe468df1	-0.19390084
208	0xbe0ce43e	-0.13758942
209	0x3c59ef4f	0.0133016845
210	0xbe1447cf	-0.14480518
211	0x3e3d40a1	0.18481685
212	0xbf26d888	-0.6517415
213	0x3e0c907e	0.13726994
214	0xbc08d338	-0.00835114
215	0xbbb3ef7d	-0.0054911957
216	0x3dad6393	0.08466258
217	0xbe2d37ed	-0.16915865
218	0x3f22acf3	0.6354515
219	0xbe3a471c	-0.18191189
220	0x3ddbaa1d	0.10725806
221	0x3e7ada54	0.24497348
222	0xbe7d45eb	-0.24733703
223	0x3c8abfed	0.01693722
224	0x3ec9c082	0.39404684
225	0xbcf66476	-0.0300772
226	0x3d2874a1	0.04112685
227	0x3d7d9a3c	0.061914667
228	0xbe16144a	-0.14656177
229	0x3cfc623a	0.030808557
230	0xbedfe3d0	-0.43728495
231	0x3ef3d427	0.47622797
232	0x3e1abb78	0.15110576
233	0x3cf054fc	0.029337399
234	0x3e2c62d5	0.16834576
235	0xbe25c6c4	-0.16189104
236	0xbd0727e8	-0.032997042
237	0xbcb21150	-0.02173677
238	0x3d7bfde1	0.061521415
239	0xbf33f770	-0.70299435
240	0x3c8578cf	0.016292958
241	0xbd8626f2	-0.06550397
242	0x3e9cd9ff	0.30635068
243	0x3dd1d245	0.10245184
244	0x3e441733	0.19149475
245	0xbec50ca5	-0.3848621
246	0x3e5af561	0.21382667
247	0xbf05b643	-0.52231234
248	0xbd7b2bc6	-0.061321042
249	0xbe6065e8	-0.21913874
250	0xbf0c1e4f	-0.5473375
251	0xbdb5be1d	-0.08874152
252	0x3ea070d5	0.31336084
253	0x3eaa4cbc	0.3326167
254	0xbeb2974b	-0.34881052
255	0x3d7596f5	0.059958417

model.2.bias f4 [32]
0	0xbc4e64c9	-0.012597271
1	0xbd3f9725	-0.046775002
2	0xbcdef81b	-0.027217915
3	0xbe602329	-0.21888413
4	0xbe836aae	-0.25667328
5	0xbd873597	-0.06602018
6	0x3e5c71fa	0.21527854
7	0x3ec4db04	0.38448346
8	0xbd5c989d	-0.05385648
9	0x3e5d228e	0.21595213
10	0x3e498995	0.1968139
11	0x3e7c70ec	0.24652451
12	0x3ab1cef6	0.0013565707
13	0xbe7b9a9a	-0.24570695
14	0x3cd6a17a	0.026200045
15	0x3ece6d16	0.403176
16	0xbe1066fa	-0.14101782
17	0xbe9b80ab	-0.30371603
18	0x3e2034f9	0.15645207
19	0xbeb27772	-0.34856755
20	0xbe9f4b98	-0.3111236
21	0x3d7d57a6	0.061851166
22	0xbda0b3c1	-0.07846785
23	0x3da1bee9	0.07897741
24	0xbdff2702	-0.12458612
25	0x3e006f26	0.125424
26	0xbecf012e	-0.40430588
27	0xbcfab93e	-0.030605908
28	0xbd6c0243	-0.057619344
29	0xbc99406f	-0.018707482
30	0x3e1c3eb7	0.15258299
31	0x3ea3cfee	0.31994575

model.4.weight f4 [16, 32]
0	0x3e4bacc3	0.19890122
1	0x3c846e0f	0.016165761
2	0xbe5f5d24	-0.21812874
3	0x3eb03acb	0.34419855
4	0x3e4f30d4	0.2023347
5	0x3d9836c7	0.07432323
6	0xbe68f274	-0.22748739
7	0xbf8ad921	-1.0847512
8	0xbdbc0ad6	-0.09181754
9	0xbcc54207	-0.024079336
10	0xbe9750fe	-0.2955398
11	0xbd873218	-0.066013515
12	0xbd6b66a1	-0.05747092
13	0x3ea787f4	0.32720912
14	0xbdd27b98	-0.1027748
15	0xbea9ab52	-0.3313852
16	0x3d7152b2	0.058916755
17	0xbf202715	-0.62559634
18	0x3dd9496f	0.106097095
19	0x3e4bda63	0.19907527
20	0xbe6ce9ea	-0.23136106
21	0x3e0b4de2	0.13603929
22	0x3e893ea2	0.26805598
23	0xbe0ddf3f	-0.13854693
24	0x3e40eb66	0.18839797
25	0x3d97b276	0.074070856
26	0xbe3a8545	-0.18214901
27	0x3e9e8c7a	0.3096655
28	0x3d0e6a18	0.034769148
29	0xbde0b063	-0.10971143
30	0x3dc9f45c	0.09861061
31	0xbeb66870	-0.35626554
32	0x3e6a29a9	0.22867455
33	0xbe1fa486	-0.15590104
34	0x3d9df225	0.07712201
35	0x3ee1d54e	0.4410805
36	0x3ead4cee	0.33847755
37	0x3d449153	0.047990154
38	0xbe38523b	-0.18000118
39	0xbea981e3	-0.33106908
40	0xbdb2165d	-0.08695672
41	0x3e70e7a1	0.2352586
42	0x3d35c0dd	0.044373382
43	0x3ec22871	0.3792148
44	0xbe1bc446	-0.15211591
45	0xbe94f1e2	-0.29090792
46	0x3dea647a	0.11444946
47	0xbef2448a	-0.47317916
48	0x3d8a3bfd	0.06749723
49	0x3f09db58	0.53850317
50	0x3e51bad6	0.20481429
51	0x3ebb0c0e	0.36532634
52	0xbeb350e7	-0.3502266
53	0xbcf4d43a	-0.029886354
54	0x3e911d85	0.28342834
55	0x3dc0274e	0.09382497
56	0x3e40cdc1	0.18828489
57	0x3e4f0c4b	0.20219533
58	0x3e287c14	0.16453582
59	0x3e53e4f1	0.20692803
60	0xbd2fa4fa	-0.042881943
61	0x3d980c85	0.07424263
62	0xbe7decba	-0.24797335
63	0x3ce2792a	0.027645666
64	0xbe1a75e1	-0.1508403
65	0x3dd76f0e	0.10519229
66	0x3e6a3e31	0.22875287
67	0xbf0da70b	-0.5533301
68	0x3f24603e	0.64209354
69	0x3e68c674	0.22731954
70	0x3eceda85	0.40401092
71	0x3f60409f	0.87598604
72	0x3e298e37	0.16558157
73	0x3e9d73c2	0.3075238
74	0xbda7c56e	-0.081919536
75	0x3e8e742a	0.27823
76	0x3ebfa90e	0.37433666
77	0xbd86173d	-0.06547401
78	0xbbd9d582	-0.0066477666
79	0x3eb144ed	0.346229
80	0x3e83bce2	0.25730044
81	0xbe9fa451	-0.3118005
82	0xbe11e2f1	-0.14246728
83	0xbecf65cd	-0.40507355
84	0x3e714b6e	0.2356393
85	0xbe0b01d1	-0.13574912
86	0xbded9dff	-0.11602401
87	0x3dbbde6e	0.091732845
88	0xbe8358b1	-0.25653604
89	0x3d4b2e38	0.049604625
90	0xbec60876	-0.3867833
91	0x3cbe7baa	0.023252327
92	0x3b19de68	0.0023478512
93	0x3dd913b7	0.105994634
94	0x3eaa6903	0.33283243
95	0x3d3e525b	0.04646526
96	0xbd3ab69b	-0.045584302
97	0x3aefe92c	0.0018303744
98	0xbcf5e69a	-0.030017186
99	0xbd425fb3	-0.047454547
100	0x3d6c677a	0.05771587
101	0xbe07fa5a	-0.13279095
102	0xbe1395fe	-0.14412686
103	0xbcb7f322	-0.022454802
104	0xbc5ac03e	-0.013351498
105	0x3d73fcd1	0.059567276
106	0x3de123a9	0.1099313
107	0xbc6a4039	-0.014297538
108	0x3deb71c5	0.11496309
109	0x3d652972	0.05594773
110	0x3c7e74cc	0.015530776
111	0xbe23dad1	-0.1600144
112	0x3af5ed40	0.0018762723
113	0xbdb1337a	-0.086523965
114	0xbd533a6f	-0.0515694
115	0xbda66e60	-0.08126521
116	0xbdd30a99	-0.10304756
117	0xbd9f5974	-0.07780734
118	0xbe18eecd	-0.14934845
119	0xbbf6c31f	-0.0075305845
120	0xbe0c7360	-0.13715887
121	0xbe0dec4b	-0.1385967
122	0x3d3e8910	0.04651743
123	0x3daa7767	0.083235554
124	0x3e2faba3	0.17155318
125	0xbcaa67b7	-0.020801408
126	0xbdca25e1	-0.09870506
127	0x3daa2253	0.08307328
128	0xbeedb693	-0.46428356
129	0xbe2c7fd9	-0.16845645
130	0xbddabfbb	-0.10681101
131	0xbf42ffbb	-0.76171464
132	0xbd769e57	-0.0602096
133	0x3e66f8d0	0.22555852
134	0x3e174849	0.14773668
135	0x3df6954f	0.12040197
136	0xbcdc4fe5	-0.026893565
137	0xbe62ab8a	-0.2213575
138	0x3d16df48	0.03683403
139	0xbe1a3901	-0.15060808
140	0x3e8c39da	0.27387887
141	0x3f00c1d0	0.50295734
142	0x3e35e19e	0.17761847
143	0x3ef5d3ea	0.4801324
144	0xbcdf3c89	-0.027250545
145	0xbec3b789	-0.38225964
146	0x3d506680	0.050879
147	0xbe54b3b6	-0.2077168
148	0x3f25a5e9	0.64706284
149	0x3d62abd6	0.055339657
150	0x3e10ac64	0.14128262
151	0x3e1cbc34	0.15306169
152	0x3e129c3b	0.1431741
153	0xbdcf42d4	-0.10120168
154	0x3d61212f	0.054963287
155	0x3d5d9d65	0.05410518
156	0x3c0aa4ca	0.00846214
157	0xbde090dd	-0.109651305
158	0xbb418f36	-0.0029534823
159	0x3ddb3ab8	0.10704559
160	0x3ddebc30	0.10875738
161	0x3e23723d	0.15961547
162	0xbe1bef19	-0.15227927
163	0x3ba0c4b7	0.0049062627
164	0xbe7cf3e1	-0.24702407
165	0x3db2c443	0.0872884
166	0x3e4e66c1	0.20156385
167	0x3ec4f544	0.38468373
168	0x3e645902	0.22299579
169	0x3da7643b	0.08173414
170	0xbe05041a	-0.12989846
171	0x3f0cd115	0.55006534
172	0xbdbf9186	-0.09353928
173	0xbec888e2	-0.39166933
174	0x3e0e3647	0.13887893
175	0x3e5d4bf6	0.21611008
176	0x3e074acd	0.13212128
177	0xbe8a6442	-0.27029616
178	0x3e25742f	0.16157602
179	0xbf12b5b2	-0.57308495
180	0xbe99ad53	-0.30015048
181	0xbe85434d	-0.2602791
182	0xbe1658ea	-0.14682356
183	0x3db23786	0.087019965
184	0x3e31ba8e	0.17356321
185	0xbe04f201	-0.12982942
186	0xbedfe72e	-0.43731064
187	0x3e0143c9	0.12623514
188	0xbe0a9eb4	-0.13537103
189	0xbe425d2a	-0.18980852
190	0xbe876f6e	-0.26452202
191	0xbeb3c31f	-0.35109803
192	0x3ded0459	0.11573095
193	0x3e073d45	0.13206966
194	0xbe1ed272	-0.15509966
195	0x3e0b9fe4	0.13635212
196	0xbd8a192f	-0.06743085
197	0x3e0079fa	0.1254653
198	0xbb329439	-0.0027248992
199	0xbdbf0a29	-0.0932811
200	0x3d8f50a1	0.069978006
201	0xbd11e1a2	-0.03561557
202	0x3e1dac80	0.15397835
203	0xbd9673ea	-0.073463276
204	0xbdbeaf03	-0.093107246
205	0xbcc9230d	-0.024552846
206	0x3dd82d34	0.10555497
207	0xbe045979	-0.12924756
208	0xbc9dfc91	-0.019285472
209	0xbd115a88	-0.035486728
210	0xbe548fb6	-0.20757946
211	0x3da1267b	0.07868668
212	0xbe22ba2d	-0.15891333
213	0xbd12f1d4	-0.035875157
214	0xbdc0f24d	-0.09421215
215	0xbd9bc8cd	-0.07606659
216	0x3da13390	0.07871163
217	0xbe51bec6	-0.2048293
218	0xbd7702d4	-0.06030543
219	0xbc9f8d36	-0.019476514
220	0x3db05e95	0.0861179
221	0xbc8452b3	-0.016152715
222	0xbcf0be52	-0.029387627
223	0xbd14aca2	-0.036297448
224	0x3f1af2d1	0.6052676
225	0x3c864f68	0.016395286
226	0xbe5b06ee	-0.21389362
227	0x3f803b9c	1.0018191
228	0x3df8262a	0.12116654
229	0xbd17c411	-0.037052218
230	0xbe85c501	-0.26126865
231	0x3e535cf2	0.20640925
232	0xbe4ce20c	-0.20008105
233	0x3eabef9a	0.3358124
234	0x3b3b24ca	0.0028555864
235	0xbcd06251	-0.025437506
236	0xbed54803	-0.41656503
237	0xbe220db7	-0.15825544
238	0x3ddc8e42	0.10769321
239	0x3e2e66cb	0.170314
240	0xbefba243	-0.49147233
241	0x3d3c83de	0.046024196
242	0x3e3c2ac3	0.18375687
243	0xbe14144f	-0.14460872
244	0xbf70961f	-0.93979067
245	0x3e38bc6c	0.18040627
246	0xbd4f5c30	-0.050625026
247	0xbcaaf071	-0.020866605
248	0xbdef89da	-0.11696215
249	0x3d1feb9f	0.039043065
250	0xbde1c4f1	-0.11023892
251	0x3e6e6027	0.23278867
252	0xbc246ced	-0.010035736
253	0x3e9d601f	0.30737397
254	0x3ec6587c	0.38739383
255	0x3ebf4a9b	0.37361607

model.4.bias f4 [16]
0	0xbdaf6b6b	-0.0856541
1	0x3d969e9d	0.07354472
2	0x3e4e3cf7	0.20140444
3	0xbd7cb489	-0.06169561
4	0xbcf5a040	-0.02998364
5	0x3e82140f	0.25405928
6	0xbde3e075	-0.11126796
7	0x3eab3b62	0.33443743
8	0x3d5e3153	0.054246258
9	0x3d66cbe4	0.05634679
10	0x3b439200	0.0029841661
11	0x3e85a45f	0.26101968
12	0xbd50d1e7	-0.05098143
13	0xba8bd307	-0.001066775
14	0x3e48d230	0.1961143
15	0xbcc56cb3	-0.024099683

model.6.weight f4 [3, 16]
0	0xbf3a715c	-0.7282922
1	0x3ecaed53	0.3963419
2	0xbecb7081	-0.3973427
3	0xbe40181c	-0.18759197
4	0xbeb6ec58	-0.3572719
5	0x3eb6b067	0.3568146
6	0x3e14aa0e	0.14517996
7	0xbd5e5b11	-0.054286066
8	0x3eec6429	0.46170166
9	0xbf50c269	-0.81546646
10	0xbee66621	-0.44999793
11	0x3dea9e96	0.11456029
12	0x3e2d04e3	0.16896395
13	0xbeb11a4a	-0.3459037
14	0x3f03aae1	0.51432616
15	0xbea86edb	-0.32897076
16	0x3dc2486c	0.094864696
17	0x3d2d223a	0.04226897
18	0xbf0bd1bd	-0.5461691
19	0xbe1ed4e8	-0.15510905
20	0x3e7d489b	0.24734728
21	0x3ee2ff41	0.44335368
22	0xbe429130	-0.19000697
23	0xbe0ee8f0	-0.13956046
24	0xbf419d76	-0.7563089
25	0xbf0dc756	-0.5538229
26	0xbf2e0326	-0.67973554
27	0x3ee429dc	0.44563186
28	0x3e3b4040	0.18286228
29	0xbf063b27	-0.5243401
30	0xbe2f3c76	-0.17112908
31	0x3ec691c2	0.3878308
32	0x3e00241c	0.12513775
33	0x3e528bd2	0.2056115
34	0xbec2a7fe	-0.38018793
35	0xbc1ef99c	-0.009703066
36	0xbeff6dba	-0.49888402
37	0xbeb6de71	-0.35716584
38	0x3e124c8d	0.14287014
39	0x3f9e3ccd	1.2362305
40	0xbd9c5ee7	-0.07635289
41	0xbdfa6ec9	-0.12228162
42	0xbccbfe0a	-0.024901409
43	0xbe7fa964	-0.24966961
44	0x3e194c9b	0.14970629
45	0xbec1a4df	-0.378211
46	0xbd5a8b1b	-0.053355318
47	0x3f10be18	0.5654006

model.6.bias f4 [3]
0	0x3db9c824	0.09071377
1	0xb722b9e0	-9.69923e-06
2	0xbe159294	-0.14606696

exp_avg f4 [32, 1]
0	0x3bf9db91	0.0076250513
1	0x3ad63af5	0.0016344475
2	0x00000000	0.0
3	0x3ba76880	0.005108893
4	0x3a009ab7	0.0004905867
5	0xbb5dd9b1	-0.0033851678
6	0xbb7b4c19	-0.0038344918
7	0x00000000	0.0
8	0x00000000	0.0
9	0x00000000	0.0
10	0x00000000	0.0
11	0x3dc8d3eb	0.09806045
12	0x00000000	0.0
13	0xbc25ad5b	-0.010112132
14	0x3be2a274	0.0069163386
15	0x00000000	0.0
16	0xbb2700a8	-0.002548257
17	0x3ba27a3a	0.004958418
18	0x3a4721b2	0.00075962686
19	0x00000000	0.0
20	0xbbbd8431	-0.0057835807
21	0xba95b0a0	-0.0011420436
22	0x00000000	0.0
23	0x3beca767	0.0072221044
24	0x3bc0a1ea	0.0058786767
25	0x00000000	0.0
26	0x3a77a263	0.00094465
27	0x00000000	0.0
28	0x00000000	0.0
29	0x00000000	0.0
30	0x3a4cc49e	0.00078112807
31	0xbc07394d	-0.008253408

exp_avg_sq f4 [32, 1]
0	0x3aea3fa1	0.0017871746
1	0x3a8ba4f4	0.0010654018
2	0x00000000	0.0
3	0x3b21a71e	0.002466626
4	0x39ab58f6	0.00032681943
5	0x398bddf4	0.00026677514
6	0x3b2f649e	0.0026762853
7	0x00000000	0.0
8	0x00000000	0.0
9	0x00000000	0.0
10	0x00000000	0.0
11	0x3ebe4a1f	0.37165925
12	0x00000000	0.0
13	0x3b995e19	0.004680407
14	0x3b4b23bb	0.0030996639
15	0x00000000	0.0
16	0x3ab99033	0.0014157355
17	0x3b4dcc99	0.0031402467
18	0x38f6a009	0.00011760003
19	0x00000000	0.0
20	0x3b45ddc9	0.0030192009
21	0x395a5464	0.00020821538
22	0x00000000	0.0
23	0x3c9dbbe9	0.019254642
24	0x3b036108	0.0020046849
25	0x00000000	0.0
26	0x3a00454c	0.00048931385
27	0x00000000	0.0
28	0x00000000	0.0
29	0x00000000	0.0
30	0x3d8e9f4d	0.06963978
31	0x3c2f518b	0.010700594

exp_avg f4 [32]
0	0x38f09470	0.000114717404
1	0xb71ed587	-9.46725e-06
2	0x00000000	0.0
3	0xb7222f1d	-9.666922e-06
4	0x3809102a	3.26784e-05
5	0xb8e513aa	-0.00010923234
6	0x39347bc2	0.00017212241
7	0x00000000	0.0
8	0x00000000	0.0
9	0x00000000	0.0
10	0x00000000	0.0
11	0xb99234e6	-0.00027886702
12	0x00000000	0.0
13	0xb9927d9f	-0.00027940885
14	0xb90ba228	-0.00013316481
15	0x00000000	0.0
16	0x38adb1be	8.28239e-05
17	0xb7dfef3f	-2.669508e-05
18	0x3901c747	0.00012376635
19	0x00000000	0.0
20	0x3892b231	6.995013e-05
21	0xb6998b6f	-4.5759875e-06
22	0x00000000	0.0
23	0x36e2a883	6.754942e-06
24	0xb8578c88	-5.1390874e-05
25	0x00000000	0.0
26	0xb605d47a	-1.9942222e-06
27	0x00000000	0.0
28	0x00000000	0.0
29	0x00000000	0.0
30	0xba742f3a	-0.00093148986
31	0xb8dbc3fc	-0.00010479239

exp_avg_sq f4 [32]
0	0x352fbc70	6.5466793e-07
1	0x35b48c9a	1.3451966e-06
2	0x00000000	0.0
3	0x35a6210f	1.2377585e-06
4	0x34ac0ae2	3.2045415e-07
5	0x34e73a39	4.3069466e-07
6	0x35ecf9ed	1.7656108e-06
7	0x00000000	0.0
8	0x00000000	0.0
9	0x00000000	0.0
10	0x00000000	0.0
11	0x39e8aea2	0.000443806
12	0x00000000	0.0
13	0x36434a70	2.9100593e-06
14	0x360ba02f	2.0805853e-06
15	0x00000000	0.0
16	0x36412551	2.8780962e-06
17	0x35ab85da	1.2779449e-06
18	0x372dc7bb	1.0358107e-05
19	0x00000000	0.0
20	0x369c463f	4.65734e-06
21	0x351a90c3	5.7580127e-07
22	0x00000000	0.0
23	0x378e3c0b	1.6955679e-05
24	0x357691b8	9.185419e-07
25	0x00000000	0.0
26	0x3519c1b0	5.7278794e-07
27	0x00000000	0.0
28	0x00000000	0.0
29	0x00000000	0.0
30	0x38ca84cc	9.656846e-05
31	0x36679499	3.4508178e-06

exp_avg f4 [16, 32]
0	0x00000000	0.0
1	0x00000000	0.0
2	0x00000000	0.0
3	0x00000000	0.0
4	0x00000000	0.0
5	0x00000000	0.0
6	0x00000000	0.0
7	0x00000000	0.0
8	0x00000000	0.0
9	0x00000000	0.0
10	0x00000000	0.0
11	0x00000000	0.0
12	0x00000000	0.0
13	0x00000000	0.0
14	0x00000000	0.0
15	0x00000000	0.0
16	0x00000000	0.0
17	0x00000000	0.0
18	0x00000000	0.0
19	0x00000000	0.0
20	0x00000000	0.0
21	0x00000000	0.0
22	0x00000000	0.0
23	0x00000000	0.0
24	0x00000000	0.0
25	0x00000000	0.0
26	0x00000000	0.0
27	0x00000000	0.0
28	0x00000000	0.0
29	0x00000000	0.0
30	0x00000000	0.0
31	0x00000000	0.0
32	0x3cd409d8	0.0258836
33	0x3c98750d	0.018610502
34	0x00000000	0.0
35	0x3cd65932	0.026165579
36	0x3c154f4b	0.009113143
37	0x3cd8ffce	0.026489165
38	0x3cc662eb	0.02421709
39	0x00000000	0.0
40	0x00000000	0.0
41	0x00000000	0.0
42	0x00000000	0.0
43	0xba106c4e	-0.0005509303
44	0x00000000	0.0
45	0x3a30b72c	0.0006741162
46	0x3ce0f9ee	0.027462926
47	0x00000000	0.0
48	0x3c630284	0.01385558
49	0x3c94b8ba	0.01815449
50	0x3875e695	5.8627298e-05
51	0x00000000	0.0
52	0x3b267dd1	0.0025404582
53	0x3c6e8cf4	0.014559973
54	0x00000000	0.0
55	0xb980597e	-0.0002448074
56	0x3cd5950b	0.026072046
57	0x00000000	0.0
58	0x3cba3d90	0.022734433
59	0x00000000	0.0
60	0x00000000	0.0
61	0x00000000	0.0
62	0xb9e04ae0	-0.00042780396
63	0x3a5be51d	0.00083883276
64	0x00000000	0.0
65	0x00000000	0.0
66	0x00000000	0.0
67	0x00000000	0.0
68	0x00000000	0.0
69	0x00000000	0.0
70	0x00000000	0.0
71	0x00000000	0.0
72	0x00000000	0.0
73	0x00000000	0.0
74	0x00000000	0.0
75	0x00000000	0.0
76	0x00000000	0.0
77	0x00000000	0.0
78	0x00000000	0.0
79	0x00000000	0.0
80	0x00000000	0.0
81	0x00000000	0.0
82	0x00000000	0.0
83	0x00000000	0.0
84	0x00000000	0.0
85	0x00000000	0.0
86	0x00000000	0.0
87	0x00000000	0.0
88	0x00000000	0.0
89	0x00000000	0.0
90	0x00000000	0.0
91	0x00000000	0.0
92	0x00000000	0.0
93	0x00000000	0.0
94	0x00000000	0.0
95	0x00000000	0.0
96	0xba43fda4	-0.0007476455
97	0xba10531f	-0.000550555
98	0x00000000	0.0
99	0xba3aff0a	-0.00071333407
100	0xb99036b6	-0.00027506583
101	0xba434914	-0.0007449549
102	0xba131ecd	-0.00056121947
103	0x00000000	0.0
104	0x00000000	0.0
105	0x00000000	0.0
106	0x00000000	0.0
107	0xb9149029	-0.00014168084
108	0x00000000	0.0
109	0xaf5217dc	-1.9107865e-10
110	0xba4d2026	-0.000782492
111	0x00000000	0.0
112	0xb9c18ad1	-0.00036915255
113	0xb9c1c00b	-0.00036954912
114	0x379c3cc6	1.8624949e-05
115	0x00000000	0.0
116	0xb6e5a16d	-6.8435243e-06
117	0xb9a61a7b	-0.00031681717
118	0x00000000	0.0
119	0xb88a1b2d	-6.585415e-05
120	0xba5904e7	-0.00082786236
121	0x00000000	0.0
122	0xb9f26a86	-0.00046237203
123	0x00000000	0.0
124	0x00000000	0.0
125	0x00000000	0.0
126	0xb8cbdfed	-9.721504e-05
127	0x00000004	6e-45
128	0x00000004	6e-45
129	0x00000004	6e-45
130	0x00000000	0.0
131	0x00000004	6e-45
132	0x00000004	6e-45
133	0x00000004	6e-45
134	0x00000004	6e-45
135	0x00000000	0.0
136	0x00000000	0.0
137	0x00000000	0.0
138	0x00000000	0.0
139	0x00000004	6e-45
140	0x00000000	0.0
141	0x00000000	0.0
142	0x00000004	6e-45
143	0x00000000	0.0
144	0x00000004	6e-45
145	0x00000000	0.0
146	0x00000004	6e-45
147	0x00000000	0.0
148	0x00000000	0.0
149	0x00000000	0.0
150	0x00000000	0.0
151	0x00000004	6e-45
152	0x00000004	6e-45
153	0x00000000	0.0
154	0x00000000	0.0
155	0x00000000	0.0
156	0x00000000	0.0
157	0x00000000	0.0
158	0x00000004	6e-45
159	0x00000000	0.0
160	0xbb816711	-0.003949054
161	0xbb3a8911	-0.0028463046
162	0x00000000	0.0
163	0xbb8336eb	-0.0040043495
164	0xbab88233	-0.0014076888
165	0xbb844e93	-0.004037687
166	0xbb6ff099	-0.0036611913
167	0x00000000	0.0
168	0x00000000	0.0
169	0x00000000	0.0
170	0x00000000	0.0
171	0x383762a9	4.3722484e-05
172	0x00000000	0.0
173	0xb8d3795f	-0.00010083871
174	0xbb8994d8	-0.0041986518
175	0x00000000	0.0
176	0xbb0a2e74	-0.0021084817
177	0xbb33e420	-0.0027449206
178	0x00000004	6e-45
179	0x00000000	0.0
180	0xb9c45ac7	-0.00037451668
181	0xbb105932	-0.002202582
182	0x00000000	0.0
183	0x3756fadf	1.28138045e-05
184	0xbb83518a	-0.004007523
185	0x00000000	0.0
186	0xbb618933	-0.0034414052
187	0x00000000	0.0
188	0x00000000	0.0
189	0x00000000	0.0
190	0x37c80198	2.38426e-05
191	0xb9129ddf	-0.00013982457
192	0x3c6fe306	0.014641529
193	0x3c2cb442	0.010541024
194	0x00000000	0.0
195	0x3c71fc90	0.014769688
196	0x3ba9ae55	0.0051782527
197	0x3c751e69	0.014960864
198	0x3c5da466	0.013527965
199	0x00000000	0.0
200	0x00000000	0.0
201	0x00000000	0.0
202	0x00000000	0.0
203	0xb9005b43	-0.00012241029
204	0x00000000	0.0
205	0x39b3206e	0.00034165703
206	0x3c7e8c53	0.015536386
207	0x00000000	0.0
208	0x3bffb823	0.007803933
209	0x3c2599ac	0.010107439
210	0xb89775a3	-7.2221526e-05
211	0x00000000	0.0
212	0x3ab18ef5	0.0013546633
213	0x3c0518ef	0.00812362
214	0x00000000	0.0
215	0xb850d4f8	-4.9789407e-05
216	0x3c735206	0.014851099
217	0x00000000	0.0
218	0x3c4f6e5d	0.01266059
219	0x00000000	0.0
220	0x00000000	0.0
221	0x00000000	0.0
222	0xb8e380fb	-0.00010848228
223	0x39d64f8f	0.00040876537
224	0x00000004	6e-45
225	0x00000004	6e-45
226	0x00000000	0.0
227	0x00000004	6e-45
228	0x00000004	6e-45
229	0x00000004	6e-45
230	0x00000004	6e-45
231	0x00000000	0.0
232	0x00000000	0.0
233	0x00000000	0.0
234	0x00000000	0.0
235	0x00000004	6e-45
236	0x00000000	0.0
237	0x00000004	6e-45
238	0x00000004	6e-45
239	0x00000000	0.0
240	0x00000004	6e-45
241	0x00000004	6e-45
242	0x00000004	6e-45
243	0x00000000	0.0
244	0x00000004	6e-45
245	0x00000004	6e-45
246	0x00000000	0.0
247	0x00000004	6e-45
248	0x00000004	6e-45
249	0x00000000	0.0
250	0x00000004	6e-45
251	0x00000000	0.0
252	0x00000000	0.0
253	0x00000000	0.0
254	0x00000004	6e-45
255	0x00000004	6e-45
